deep-learning-lab/DL-Lab/lab 6/ModelFiles/model.pt (torch, 159580 bytes, 10 tensors)

weight f4 [32, 1, 3, 3]
000000 27 9f 81 3e 18 31 bf bd f1 5b 1c bd 65 c6 9e be
       0.25316736 -0.09335536 -0.03817362 -0.31010738
000010 02 58 51 be a5 60 b7 be 1e 5c 38 3d 80 f3 69 be
       -0.20443729 -0.3581592 0.045009725 -0.22846794
000020 5b 89 61 be c6 49 0e 3d cc 0c 81 3e 0e ad 71 be
       -0.22025053 0.034738325 0.25205076 -0.23601171
000030 37 fe 32 be c5 53 54 3d 57 91 86 be e2 59 bb be
       -0.17479788 0.0518377 -0.2628276 -0.36592013
000040 13 8e 1c be 54 fb 94 be a6 96 ca bb b5 bd 38 3d
       -0.15288572 -0.29097998 -0.0061825095 0.045102794
000050 62 53 25 be 99 bb aa 3e df 60 61 3e 9d d3 bb 3d
       -0.1614509 0.3334625 0.2200961 0.091712214
000060 6a b3 c5 3e 07 84 f0 3d 00 06 09 3d b2 a5 47 3e
       0.38613445 0.11743932 0.033452988 0.19496801
000070 b5 65 26 3d 3c b8 17 be e9 ab de bd 30 38 a4 bd
       0.04062434 -0.14816374 -0.10872633 -0.080185294
000080 52 7b b4 be d5 53 a8 be 1e e6 96 3e d4 ab 96 be
       -0.35250336 -0.3287646 0.2947244 -0.2942797
000090 a8 da f9 bb 0f f4 f3 3c 6e 75 9b bc 2e 6f 5a be
       -0.007624943 0.029779462 -0.018976893 -0.21331474
0000a0 fd 2f 15 3d 3a 14 75 be 4f 6f 37 3e 15 7e a8 3e
       0.03642272 -0.23933497 0.17913555 0.32908693
0000b0 a6 01 b8 3e 5b 3a b5 3e 7b d7 a6 3e 49 2a d6 3e
       0.35938758 0.35396084 0.32586274 0.41829136
0000c0 2e 4d 3c be 8d 47 ba bd da 1b 3b be 2d 7d 66 be
       -0.18388817 -0.090956785 -0.18272343 -0.22508688
0000d0 62 ba c0 be c6 e3 8a be 8e 87 96 bd a2 c1 2d bd
       -0.376422 -0.27126902 -0.07350074 -0.04242099
0000e0 7a 57 a0 be a1 f7 b2 3e 26 ad 98 3e d8 4f 3a be
       -0.3131674 0.3495455 0.29819602 -0.1819452
0000f0 5d 6c 3c 3d aa 42 95 3e cb 2e 86 bc 5b 49 c1 3e
       0.04600178 0.29152423 -0.016379735 0.37751278
000100 3b 5d c8 bd d5 3a a0 3e 87 59 fe 3d e5 d6 fc 3d
       -0.09783407 0.31294885 0.1241942 0.123456754
000110 a4 48 0c be 9d a1 fc 3d ad 84 9f 3e 4c 7e 1d 3c
       -0.13699585 0.12335513 0.3115591 0.009612631
000120 53 4f 93 be 78 b5 a2 3e 38 6e cd bd e5 d4 83 bd
       -0.28771457 0.31779075 -0.10030788 -0.06437091
000130 4c 84 d0 bd 66 c4 23 be c4 07 96 be 6b 59 3b 3e
       -0.101814836 -0.15992889 -0.293028 0.18295829
000140 f4 2b c4 3e b0 b9 a8 3e 71 9c fb bd f4 ec 69 3e
       0.38314784 0.32954168 -0.12285698 0.22844297
000150 53 1c 86 3d 26 9a 12 3b bd 02 49 3e 55 d8 2a 3d
       0.06548371 0.0022369712 0.19629951 0.041710217
000160 34 72 1c be 7e 1c 9e be 1a 1e 44 be 57 c3 d3 bd
       -0.1527794 -0.30881113 -0.19152108 -0.103399925
000170 8d 3b d6 3d ac 8a a3 3c 50 94 30 bd 97 98 44 be
       0.10460577 0.019963585 -0.04311019 -0.19198833
000180 d1 dc 09 bd b2 d1 8a 3e 19 8f 90 bd ba 50 2d 3e
       -0.033657853 0.2711311 -0.07058544 0.16925326
000190 7e 01 fb bc f9 be 9e be 98 d1 24 be 37 96 2e 3e
       -0.03064036 -0.31005076 -0.16095579 0.1704949
0001a0 98 40 68 be ae cd b4 3e 12 bc b0 3d 3e 6f 81 bd
       -0.2268089 0.3531317 0.086296216 -0.06320046
0001b0 fc bc 38 be 2c c0 a7 be 2a f6 06 be 1d 92 83 3e
       -0.18040842 -0.32763803 -0.13179842 0.25697413
0001c0 a4 17 9f bd 6f a5 46 3e 70 be 11 3e a1 7f e8 bd
       -0.07768181 0.19399045 0.14232802 -0.11352468
0001d0 b3 0a 6c 3e 49 96 03 be c8 11 14 3e c3 9d 39 3d
       0.23050956 -0.12850298 0.14459908 0.04531647
0001e0 7c 83 a8 3e 9f 75 80 3e 5b 47 ad 3d 97 d0 7a be
       0.32912815 0.25089738 0.084608756 -0.24493633
0001f0 e4 f4 6c be 50 3d 72 3e 42 96 be 3e ae 36 a4 3e
       -0.23140293 0.23656201 0.37224013 0.32072967
000200 43 10 42 be 44 32 2f 3c b4 66 85 be c8 aa 10 be
       -0.18951516 0.010693137 -0.2605492 -0.14127648
000210 ed a6 fb 3d ce 8a 54 be 06 fa d0 3d 2a 58 ab 3b
       0.12287698 -0.20756075 0.10203938 0.005229016
000220 92 13 57 bd de 00 4e be 06 c8 25 3e 2f 95 35 be
       -0.052508898 -0.20117518 0.16189584 -0.1773269
000230 e8 05 e4 bd 54 56 26 3e 87 dc b0 3b 66 ab b4 be
       -0.11133939 0.16243869 0.0053973827 -0.35287017
000240 79 83 ab 3e eb 13 96 3c fa 6e dc 3d d0 91 5b bd
       0.33498743 0.018320045 0.107633546 -0.053605855
000250 12 04 29 be d1 95 5e bd 0f 01 3d bd 24 c7 23 be
       -0.16505459 -0.054342095 -0.046143588 -0.15993935
000260 e8 10 18 3e ff c8 c2 3e 64 67 f1 3e 6e c5 af 3e
       0.14850199 0.38043973 0.47149193 0.34330314
000270 e7 c6 3d 3e 76 98 1c 3b 66 8b ab 3e a7 ff 06 3e
       0.18532906 0.0023894585 0.3350479 0.13183461
000280 66 93 ff bd 47 7b 79 bc 37 a3 2d 3c b5 d6 5f be
       -0.12479286 -0.0152271455 0.0105979955 -0.21859248
000290 8c 3a 80 be de 11 2b be 9a af 2b be ba 79 c4 be
       -0.25044668 -0.16706035 -0.16766205 -0.3837412
0002a0 de 20 c6 be 29 d5 9e be b8 57 ae be 73 a7 c4 be
       -0.3869695 -0.31022003 -0.340513 -0.38409004
0002b0 e0 3b 8b bd c6 e8 a2 be 71 c3 c6 3e 8e 52 93 3e
       -0.067985296 -0.31818217 0.38820985 0.28773922
0002c0 d0 bb 9c 3e 3d e0 b8 3e 4e c5 31 3e 1f 9d 23 3e
       0.3061204 0.3610858 0.17360422 0.15977906
0002d0 ab a7 7c 3e ad 81 84 be c8 a8 dc bd 94 c1 ab be
       0.24673335 -0.25880185 -0.1077438 -0.33546126
0002e0 73 22 64 3e bd f1 85 3e 3f af 1f be 9d fc c4 bc
       0.22278766 0.26160994 -0.15594195 -0.024046237
0002f0 99 dd 81 bd b5 6e 96 3d fe 70 a7 be 17 af 13 be
       -0.063410945 0.073453344 -0.32703394 -0.1442226
000300 55 89 05 bd 54 e7 9a be 1d 83 f1 3d 54 2e 87 bd
       -0.032601673 -0.30254614 0.11792586 -0.06600633
000310 50 93 2f 3e 93 22 c1 3e d3 4d 97 3e 85 99 79 be
       0.17146039 0.3772169 0.29551563 -0.2437497
000320 a3 7e d2 3d 32 e9 5e 3e 5f ca 88 3e 57 5d 08 be
       0.1027806 0.21768644 0.26716897 -0.13316856
000330 12 7b 44 3e bd 03 8b be 6f 7d e2 3d ee fb c0 be
       0.19187573 -0.2715129 0.11059081 -0.37692207
000340 b4 f9 33 be e9 4a 8e 3d 70 d0 38 be f4 20 9b 3e
       -0.17575723 0.06947882 -0.18048263 0.3029858
000350 1f eb 42 3e 89 d8 9b bd be b0 1b 3e ab 0c c9 3e
       0.19035004 -0.0760966 0.1520414 0.39267477
000360 bb e1 47 3e b1 d9 95 3e b8 e5 09 be 1a 16 ec bd
       0.19519703 0.29267648 -0.13466537 -0.11527653
000370 6f 9d 04 3e de 8c 95 3e 70 26 52 bc c6 28 3b 3e
       0.12950681 0.29209036 -0.012826547 0.18277273
000380 9e ff 4e 3e 13 b4 68 3e b4 59 bc bc 14 be 68 3e
       0.20214698 0.22724943 -0.022991993 0.22728759
000390 98 b7 90 be 02 8e 3d bd 67 64 0f bd 46 0a 90 3d
       -0.2826507 -0.046278007 -0.03500786 0.070332095
0003a0 16 c8 4e bd 20 1f e4 bd b0 16 9e 3e 8d af 64 be
       -0.050483786 -0.11138749 0.30876684 -0.22332592
0003b0 2c cf 17 bc a1 3b f9 3d 9c 30 54 3d c5 4c a1 be
       -0.009265702 0.121695764 0.05180417 -0.31503883
0003c0 54 be e2 3e 6b 5e 9a 3e dd 96 16 be aa 97 01 bc
       0.44285834 0.3015016 -0.14705987 -0.007909695
0003d0 3c 3c 77 be 51 b6 eb 3d e9 68 30 3e bc 05 9b be
       -0.24144071 0.115093835 0.1722752 -0.30277812
0003e0 58 5a 2b 3e 1e 7f 0f bd 8a e5 95 3e 8e e1 99 3e
       0.16733682 -0.035033338 0.29276687 0.30054897
0003f0 2b 35 8c be f0 3e 91 3d 1c 23 b7 be e4 96 7c be
       -0.27384314 0.070920825 -0.35768974 -0.24666935

bias f4 [32]
000000 6b 16 25 3e 91 7b 4a 3d 90 8a 28 be ca 59 18 be
       0.16121833 0.04943425 -0.16459107 -0.14878002
000010 ee f1 ed bd ee 06 86 3c 74 24 f5 bd 55 00 80 3e
       -0.1161841 0.016360726 -0.119698435 0.25000253
000020 35 93 fc bd 22 f1 8e 3e 1a 1e ac be 27 24 4e be
       -0.12332765 0.27918345 -0.33616716 -0.20130979
000030 a5 50 53 bc 36 79 87 be 34 c1 95 3d 4b d3 1d be
       -0.012897645 -0.26459664 0.07312241 -0.15412633
000040 d0 53 02 bd 09 d1 c6 3e ff 64 9e 3e e2 72 a5 3e
       -0.03181821 0.38831356 0.3093643 0.3231421
000050 0f fe 91 be 43 97 ba 3d 65 fb 84 be a8 7b 1a 3e
       -0.28514144 0.09110882 -0.2597305 0.15086234
000060 98 49 21 3e b5 35 92 be ab 67 a8 3e eb 4e 68 be
       0.1575073 -0.285566 0.32891592 -0.22686355
000070 b6 11 93 bc 6b 61 a3 be 24 d2 47 3e 40 5a 86 be
       -0.017952781 -0.31910262 0.19513756 -0.2624073

weight f4 [64, 32, 3, 3]
000000 02 3f 0c bd c5 8a 24 3c 61 e9 52 bd 54 52 00 3d
       -0.034239776 0.010042851 -0.0514921 0.031328514
000010 e8 51 2c 3d 46 98 c2 bb 26 ea d5 3c 4a dc 14 bd
       0.0420703 -0.0059385626 0.026112627 -0.036342897
000020 b7 9b a2 3c aa fd 0e 3d d2 bf 22 bd 6d 31 55 bd
       0.019849641 0.03490988 -0.039733715 -0.05204909
000030 e9 24 40 bd 77 35 75 bc 28 95 a9 bc 71 9c 5e 3d
       -0.0469102 -0.01496636 -0.020701006 0.054348413
000040 44 f1 4c 3d f1 23 2f bc 9b 9d b4 3c 29 73 b0 bc
       0.050034776 -0.010689721 0.022047808 -0.021539288
000050 0a 39 39 bb f5 fa 12 3d c7 3f 35 bd 4e f9 4c bb
       -0.0028262758 0.035883863 -0.044250276 -0.0031276527
000060 b3 f3 9a 3c da 37 13 3d 6a 0d 3d 3d 72 b1 c6 3c
       0.018915033 0.035941936 0.04615537 0.024254534
000070 08 f1 fe 3a 11 0e dc 3c 02 05 cc 3c 95 36 27 3c
       0.0019450495 0.026862176 0.024904732 0.010205884
000080 0e 7c 78 bb 9c 53 05 bd a4 77 9d 3c 36 e4 e3 bc
       -0.003791574 -0.03255044 0.019222088 -0.02781878
000090 b1 7b a2 bc 40 ab 35 bd 4c 85 da bb 71 9e 6e bc
       -0.019834371 -0.04435277 -0.0066687223 -0.014564143
0000a0 f7 8e c9 3b 9f 90 1e bc fe 82 71 bd c7 5a d0 bc
       0.006151076 -0.009678035 -0.058962815 -0.025433911
0000b0 ae 41 df 3c d9 77 ca bc 3c 55 de 3c 04 ef 86 bb
       0.027252998 -0.024715351 0.027140252 -0.0041178484
0000c0 64 01 2c 3c b3 b0 33 bc 59 b1 13 bc 8f a7 db 3c
       0.010498378 -0.010967421 -0.009014451 0.026813297
0000d0 ea 81 75 3d f8 18 39 bd 85 e4 07 3b ee fd ac bc
       0.05993835 -0.045189828 0.0020735573 -0.021117177
0000e0 55 df e1 3c 05 dc 12 bb 2a c9 c7 bb db e6 6a 3c
       0.027572313 -0.0022408974 -0.0060969787 0.014337267
0000f0 8e 90 7b 3c ff 0f 22 3d 45 56 b9 3c 35 f1 5e 3b
       0.015354289 0.039566036 0.022624144 0.0034018282
000100 8b 1d 95 3b 3c cc 72 3d 69 79 86 ba a0 fc 78 bc
       0.004550641 0.059276804 -0.0010259572 -0.015196949
000110 39 3d 5c 3d 24 f5 aa 3c a2 d8 07 bd 08 f7 f7 bc
       0.053769324 0.020868845 -0.03316558 -0.03026916
000120 fc 4f a5 3c 2b f2 3f 3d 8b 79 77 3d fd ea f0 bc
       0.020179741 0.04686181 0.060418647 -0.029408926
000130 b2 04 60 bd e1 01 d2 3c f0 40 cc 3c ec 43 7b bc
       -0.054691978 0.025635662 0.024933308 -0.015336018
000140 39 f3 d3 3c 2b c4 39 bd a1 35 2f bd 23 f9 a1 bb
       0.025872814 -0.045353096 -0.042775754 -0.0049430295
000150 dc 30 29 bd 0a 0e 34 3d 8a 25 34 3b 94 8d 17 bd
       -0.04130636 0.0439587 0.0027488195 -0.037000254
000160 41 94 ee 3c a8 87 6d bd 24 e7 92 3c 44 f8 b6 bc
       0.029123427 -0.0579907 0.017932482 -0.02233518
000170 fd 8e 1b bd 38 8f 7a bb 58 cd c2 bc 7d ec b5 bc
       -0.03797816 -0.0038232338 -0.023779556 -0.022207493
000180 4f 31 f5 bc e7 38 47 3d 2b 6c 63 bc 05 d0 16 3d
       -0.029930739 0.04863825 -0.01388077 0.036819477
000190 67 31 63 bc 85 7f 1d 3d e2 d1 e6 3b 9c b3 6f bd
       -0.013866759 0.03845169 0.007044063 -0.0585209
0001a0 2e 63 4a bd f3 be fb bb 37 ad f5 3b 48 be 19 bd
       -0.04941099 -0.007682675 0.0074974555 -0.037534982
0001b0 e7 6b 39 3d 1a b5 0f 3d 6e 85 b2 3b 85 83 4f bb
       0.04526892 0.03508482 0.005448035 -0.0031664085
0001c0 fe 4c 76 b9 84 dc e4 3c 77 d5 02 3d ac 47 19 bc
       -0.0002348907 0.027937181 0.031941857 -0.009355467
0001d0 1d 6c 1c 3d b1 6a 5f 3d 31 3b 0d bd 10 58 cc bc
       0.038189042 0.05454511 -0.034480277 -0.024944335
0001e0 9a a5 1c 3d 76 34 09 39 b3 2b 22 3d d0 9d 5f bd
       0.038243867 0.00013084881 0.039592456 -0.05459386
0001f0 a0 d3 4a bd a3 ed 2f bd 69 8d 5d bd 99 8b a6 bc
       -0.049518228 -0.042951237 -0.054089937 -0.020330237
000200 c4 da e8 b9 e8 ef 89 bc 65 88 32 bb d5 91 71 3d
       -0.0004441348 -0.016838029 -0.0027241942 0.058976967
000210 5a 7f 21 bd 2b 73 c0 bc c5 e0 1c bd 69 2d 19 bd
       -0.039428093 -0.023492416 -0.038300294 -0.037396822
000220 04 42 35 3c 87 46 35 bd e8 38 47 bd 27 fa 25 bd
       0.011063103 -0.044256713 -0.048638254 -0.040521767
000230 2f 3b 5c bd fe 6a 92 3c bc 8d 04 3d 00 b3 6c 3d
       -0.05376738 0.017873283 0.03236173 0.057787895
000240 d2 a2 68 bb d5 67 62 bd c9 20 50 3c 82 b5 5f 3c
       -0.003549744 -0.055274803 0.012703129 0.013654115
000250 3b ce db 3c 96 c7 cc 3c 8a e6 90 3c 6d 2f 2c 3d
       0.026831737 0.024997514 0.017688055 0.042037416
000260 eb 2b d1 3c f1 96 6f bd 61 3b 5d 3d 23 26 92 bb
       0.025533637 -0.05849356 0.054011706 -0.0044601127
000270 d8 62 b7 3b d8 e0 29 3d 9d cb 20 3d 2c 8d a5 3b
       0.0055965 0.041474193 0.03925668 0.0050522294
000280 7e 3c 5e bd ee c8 17 bd 8e 03 52 bb f8 ca df 3b
       -0.05425691 -0.037056856 -0.0032045576 0.0068296157
000290 8a 8d e0 3c 1f 5c 62 bc b5 8c 79 3d 48 e4 21 3d
       0.027411241 -0.013815909 0.060925204 0.039524347
0002a0 83 74 0a 3c 29 cd aa ba 6d e8 7a 3b ab cb ef bc
       0.00845063 -0.0013031113 0.003828551 -0.029271921
0002b0 67 5c fa bb df a9 40 bd 29 a5 66 3d 84 63 a3 3c
       -0.0076404097 -0.047037 0.056309853 0.019944914
0002c0 fd 38 62 bd 09 d2 00 bd 08 95 7d 3c 1e f2 94 bc
       -0.05523013 -0.031450305 0.015477426 -0.018181857
0002d0 dc ee 11 3d 5e d5 23 bd 22 9b 59 3d ca 43 8e 3c
       0.035628185 -0.039998405 0.05312646 0.017366309
0002e0 e0 b3 b6 bc 8e ee 67 bc df 65 8c 3c 47 e3 11 3b
       -0.022302568 -0.014155997 0.01713842 0.0022260712
0002f0 ad ee 7b bc 0a 31 72 3d a7 4f f4 bc 94 1e 66 bd
       -0.015376729 0.0591288 -0.029823137 -0.056181505
000300 9c b8 3f 3a 28 2c 0d 3d cb a8 ab bc b2 2b 13 3c
       0.0007313581 0.03446594 -0.02095451 0.008982586
000310 d1 15 2b 3d 1b b9 62 3d c2 5a e3 bc cb db 4c 3d
       0.041768853 0.05535231 -0.027753238 0.0500143
000320 b2 6d cc 3c ae 2b 2b 3c ae 20 6f bd 64 8a 36 3d
       0.02495465 0.010447426 -0.058380775 0.044565573
000330 08 62 5a bc bb af c7 3b ba 72 bf 3c 3d 32 a1 bc
       -0.0133290365 0.0060939468 0.023370136 -0.019677276
000340 3e 4c 7a 3d 85 53 b2 3c 4d bb 15 bd ba e6 21 bd
       0.061107866 0.02176834 -0.036555577 -0.03952668
000350 36 87 6f 3d d4 aa 62 bd ab 6d 9a bc d8 93 2f 3c
       0.058478557 -0.055338696 -0.018851122 0.010716401
000360 16 2f 06 bd 0e 65 d4 3c 62 6b 4f bd a4 11 be 3c
       -0.03275975 0.025927093 -0.050639518 0.023201771
000370 73 12 d0 3c a1 93 38 3d 19 02 7c 3b 3c cd 2a bd
       0.025399422 0.045062665 0.0038453399 -0.041699633
000380 ea 04 dd 3c dc c0 6d 3c bb 58 e0 bc 05 65 23 3d
       0.026979882 0.014511313 -0.02738606 0.03989126
000390 70 60 75 bd 65 4b 54 3b ce 81 2c 3c 4b ba 0b 3d
       -0.059906423 0.0032393571 0.010528995 0.03411321
0003a0 a3 a1 fd bc c1 6e 6c 3d 2b ee 14 bd 4f f8 b7 3c
       -0.030960863 0.05772281 -0.036359947 0.02245727
0003b0 2b c4 84 bb 5d 1f f1 ba ef 73 15 3d fb 8e 8e bc
       -0.0040517054 -0.0018396188 0.036487516 -0.017402163
0003c0 a5 c3 0c 3d f4 83 49 bd a3 ae e7 bc 52 09 bc 3c
       0.03436627 -0.049198106 -0.028281515 0.022953663
0003d0 07 fe 5b 3c 18 39 88 bb c1 bc 6f 3d de f6 fc bc
       0.013427264 -0.0041571967 0.05852962 -0.030879434
0003e0 ce 67 ad ba 2b 0b 0a 3d a9 7e 49 3d 69 e7 e6 3b
       -0.0013229789 0.033702057 0.04919306 0.007046629
0003f0 3f 46 85 3d a5 e9 2f bd 6c c1 f7 bc 77 a0 ef bc
       0.06507539 -0.04294743 -0.030243598 -0.02925132

bias f4 [64]
000000 aa 10 24 3d 64 68 1f 3d f9 5c 70 3d 25 b3 66 3c
       0.040054955 0.038917914 0.058682416 0.014080797
000010 40 7e bf 3a 1e 6c 64 3d 80 dc 08 3d 7f cc 7d bc
       0.0014609769 0.05576717 0.03341341 -0.01549065
000020 56 b6 35 3d fc 9c 2a 3c be f5 00 3d f1 13 c7 ba
       0.044363342 0.010413405 0.031484358 -0.0015188438
000030 7b ef 2f 3d 72 2b 00 3d e5 bd 09 3d ed 90 ce 3b
       0.042952996 0.031291433 0.033628363 0.0063038976
000040 60 9f 0a 3d b3 22 3e bd a9 20 e7 bc c9 a5 00 ba
       0.033843398 -0.04641981 -0.028213816 -0.00049075164
000050 c2 36 5d 3d d8 27 e9 3b c8 ca 69 bb e2 e1 0a bb
       0.0540073 0.0071153454 -0.0035673846 -0.0021191766
000060 ff 18 32 3d d5 62 82 bc 5b 51 4e bd 50 fd 3d 3d
       0.04348087 -0.015916267 -0.050370555 0.046384156
000070 d2 ea 0f 3d f3 04 fc bc 2c 73 7b 3c 41 b6 f6 3b
       0.03513605 -0.030764079 0.015347283 0.0075290506
000080 4b b2 cf bc 1b ad ca 3c e2 c5 25 3d 73 1d e6 3a
       -0.025353571 0.024740746 0.04047192 0.0017556384
000090 d3 36 69 3d 3e 95 f6 bb 8e b1 11 bd 33 85 ac ba
       0.05693705 -0.0075251153 -0.03556972 -0.0013162255
0000a0 6e 26 8b 3d a8 3f 58 3d 7c 42 c1 ba f0 50 e6 bc
       0.06794439 0.052795082 -0.0014744545 -0.028114766
0000b0 39 87 ba bc 8d f2 7d 3d be 89 64 bc 8f 39 fe 3c
       -0.022769557 0.061998893 -0.013948856 0.031033305
0000c0 31 27 8b 3c b3 80 93 3d c5 0a a9 bc 1d bb 9b bc
       0.016986461 0.07202282 -0.020635018 -0.019010121
0000d0 29 d8 d2 3c 37 f2 be 3c 73 cb f4 bc fb 86 5b bd
       0.025737839 0.023308856 -0.029882168 -0.053595524
0000e0 f8 6e 00 bd e8 80 97 3d 4a f7 a0 bc a9 e7 b9 3c
       -0.031355828 0.07397634 -0.019649167 0.022693472
0000f0 92 fc 58 3d 4c 14 42 3d 4c 20 fa 3c f0 fc 05 bd
       0.052975245 0.047382638 0.030532978 -0.032711923

weight f4 [32, 64, 3, 3]
000000 9d 2b 14 bd ad 7f 59 3d 13 c9 03 bc f6 51 96 bc
       -0.036174405 0.053100277 -0.008043545 -0.018349629
000010 5a 69 05 bd 1b 0f 23 3d cb 2b fa bc 59 b8 84 bc
       -0.032571174 0.039809328 -0.03053846 -0.016201185
000020 80 08 32 bb 45 ae 87 bc 84 a0 05 bd 19 5a a4 3c
       -0.002716571 -0.01656259 -0.032623783 0.020062493
000030 dd 5b 2b 3d 0c a0 5a 3c 71 88 ee bc 19 2d a1 bb
       0.041835655 0.013343822 -0.029117795 -0.004918706
000040 f9 e3 13 3c 8b 06 e5 3b ba 53 06 3d e5 6d cf 3c
       0.009026521 0.0069893054 0.03279469 0.025320956
000050 cc 5a 20 3d e0 7b fd 3c 8d f2 ce 3c 32 0d 32 3d
       0.03914909 0.030942857 0.025262142 0.043469615
000060 b8 4f 97 3c 2a ad 5e 3d 7b 6c 34 3d 9c 29 1d 3d
       0.01847063 0.05436436 0.044048768 0.03836976
000070 e4 aa cb 3c c3 28 c4 3c 78 8a a4 3d b2 f0 b0 bc
       0.02486176 0.023945218 0.08034223 -0.021599147
000080 b0 1b 3a 3c 9a a4 d8 bc a4 7e 4f bd 06 46 56 bc
       0.01135914 -0.026445676 -0.050657883 -0.013078218
000090 b4 ca 0d 3d e4 04 a8 3c 2d be 99 3b ea 34 f3 3c
       0.03461714 0.020510145 0.00469186 0.029688317
0000a0 68 54 69 3c e6 77 0a 3d 01 73 9e 3c 3d 0f e1 3c
       0.014241315 0.03380575 0.019341948 0.027473086
0000b0 af d2 56 3c c1 eb 96 3c ef 4c 86 3d 9d a2 02 bd
       0.013111754 0.018422963 0.06557643 -0.03189336
0000c0 d5 1c e4 3c 7c 8b 0a bd 1c ed e1 3c d7 6e b9 bc
       0.02784578 -0.03382443 0.027578883 -0.02263586
0000d0 e3 e8 8d 3b f2 10 13 bd 55 06 f5 bb d5 52 30 3c
       0.004330741 -0.035904832 -0.0074775615 0.010761936
0000e0 0d ea 0e 3c 9c 33 b3 bd 7d 6b 99 bc 60 f5 0f bd
       0.008722794 -0.08750078 -0.018728012 -0.035146117
0000f0 e6 c1 d1 3b f2 da cb 3c 46 13 a4 bc e5 77 99 bc
       0.0064012883 0.024884675 -0.020028722 -0.018733928
000100 b5 bc ae 3c 36 3e 0b 3d 74 bd 2d 3c 27 65 07 bd
       0.021330217 0.033994876 0.010604251 -0.03305545
000110 ff 75 1e 3d 0b 93 14 3d 35 77 26 3d 61 ce cf 3c
       0.03868675 0.036273044 0.04064103 0.025366964
000120 15 0f 35 bb fd fe 0f 3d 16 ef 11 bd 61 5d ea 3b
       -0.0027627398 0.035155285 -0.0356284 0.007152245
000130 ce 93 be 3c 28 9c 09 ba eb aa b2 3b ce 25 16 bd
       0.023263838 -0.00052494043 0.005452504 -0.036657147
000140 dd ae 50 3a ee 17 cf bc 80 d8 6d bb bf c5 b1 3d
       0.0007960627 -0.025279965 -0.0036292374 0.08680295
000150 49 c5 9e bc 44 35 07 ba 48 bb f3 bc 25 7e c5 3c
       -0.019381182 -0.00051577785 -0.029752389 0.024108002
000160 6b 1e b6 3d 26 8c 93 3d 6b 25 de ba 07 3a 76 3b
       0.088925205 0.072044656 -0.0016948407 0.0037571208
000170 a5 09 a5 3b a8 72 a4 3d 24 41 a9 3c a9 45 fd 3c
       0.00503655 0.080296814 0.020660944 0.030917006
000180 38 89 7d 3d 8b 6c 95 3d 81 11 19 3d 21 63 8a 3d
       0.06189844 0.072960936 0.03737021 0.067571886
000190 88 d7 31 3c a2 98 cb 3b 1c de c6 3d 7b 53 11 3d
       0.010854609 0.0062132636 0.09710333 0.035480004
0001a0 a9 7c f4 bc 17 a2 9f 3c 8c 96 3e 3d 4e a9 7f 3d
       -0.029844599 0.01948647 0.04653029 0.06241732
0001b0 7c 90 d4 bc 4f 3e c4 bc bd b4 97 3c 97 7d 6f 3c
       -0.025947802 -0.023955492 0.0185188 0.014617345
0001c0 0d 67 a0 3d 6c c3 db 3c 70 24 b0 bb cb 95 d3 3c
       0.078321554 0.026826583 -0.0053754374 0.025828263
0001d0 de 91 ad bc 67 11 16 bd 77 f3 da bc 32 c1 f4 3c
       -0.021187719 -0.03663769 -0.026727421 0.029877279
0001e0 3c 5c f2 bc 29 2e 67 bc bf 2b 3c bd 9a 3e 15 bd
       -0.029584996 -0.0141101265 -0.045940157 -0.036436655
0001f0 cf 5a de 3c 18 82 4f bd 77 22 f8 3c 17 82 82 3d
       0.02714291 -0.050661176 0.030289872 0.06372469
000200 9b 07 92 3b ef 80 91 3d e9 bf 87 bc 2c 22 d4 3c
       0.004456473 0.0710467 -0.016571002 0.0258952
000210 00 b7 eb bc 20 ce 01 3c 36 34 b2 bc ab 2a 2a 3d
       -0.028773785 0.007922679 -0.021753412 0.041544598
000220 39 a3 ad 3c 8f 98 ec bc 8f 11 bd 3c 83 99 05 3c
       0.021195995 -0.02888134 0.023079662 0.008154276
000230 af 4d 80 3c 71 d4 ec bb 68 ba 7b 3c c8 7a 28 3c
       0.015662042 -0.0072274734 0.015364267 0.01028318
000240 d1 1b 19 3c b3 76 bd bc 0d ec a6 3c be 1c 37 3c
       0.009345011 -0.02312789 0.02037623 0.011176286
000250 a6 f1 15 bc 88 d7 08 bd 2a c8 90 3b 53 42 c3 bb
       -0.009151852 -0.03340867 0.0044183927 -0.005958834
000260 3b cd ac 3c ac 13 9c 3c 42 f0 93 3d 87 bf a4 3d
       0.021093955 0.019052349 0.0722356 0.080443434
000270 65 6e 8a bc 10 b3 fc ba 63 35 4a 3c 07 90 b1 3b
       -0.016898343 -0.0019279439 0.01234183 0.0054187807
000280 9a a9 6e 3d 83 65 28 3d 1c 20 a5 3c 94 58 b9 3c
       0.058267213 0.041112434 0.020156913 0.022625245
000290 21 cf e6 3b 65 26 f1 bb 2e 1e 1d 3d 38 b2 c7 3c
       0.0070437347 -0.0073593133 0.03835886 0.024376974
0002a0 a2 43 f8 bc fe 70 1c 3d d6 87 04 bb e2 a7 cb 3c
       -0.030305687 0.038193695 -0.0020222566 0.024860326
0002b0 d6 ee 9c ba eb 86 1d 3c ce 17 16 bc 3b 3e 81 3c
       -0.0011973034 0.0096146865 -0.009160949 0.015776744
0002c0 a9 ef 8a 3c ec 5d f3 bc c5 7d ee 3c 04 30 af 3c
       0.016959982 -0.029707871 0.029112706 0.0213852
0002d0 2b 35 46 3d 8a 1f 8b bc fa 04 36 bd a9 72 9d 3d
       0.04839055 -0.016982812 -0.04443834 0.07687885
0002e0 b6 54 50 3d c7 1a c1 bc 96 06 f3 bc db 0c 30 3d
       0.050862037 -0.023572339 -0.029666226 0.04298101
0002f0 a3 d7 17 3b ae 7f 1e 3c 4b 94 52 3c 6d bc 2f bd
       0.00231693 0.009673996 0.012852739 -0.042904306
000300 b6 80 bb 3b 63 c8 0f 3d 1d 8b b2 bb 89 6f 99 3b
       0.0057221306 0.035103213 -0.0054487125 0.0046824855
000310 67 e7 a8 3c 6f 06 f9 3c 3d bd bc 3c 59 0e 0e bc
       0.020618154 0.030398576 0.023039455 -0.008670413
000320 ec c0 a6 3c 3f ed 0d 3c a1 09 3f bd ed d7 d4 bc
       0.020355664 0.008662521 -0.046640042 -0.025981868
000330 90 5d 10 3b 15 0c 8c 3c 4c 91 58 3d d3 7a c8 bc
       0.0022028424 0.017095605 0.05287294 -0.02447263
000340 de 4d 58 bc 2d 2d fd bc 6d d4 a1 3c b4 8a e1 bc
       -0.013202159 -0.03090533 0.019754613 -0.02753196
000350 b9 68 9e bc 2e ec d6 ba 8d a7 1d 3d 10 7d 96 bc
       -0.019337045 -0.0016397291 0.038489867 -0.018370181
000360 57 31 aa 3c bf ea 21 bd 2c 10 d4 3a 88 12 0f bd
       0.02077548 -0.039530512 0.0016179136 -0.034929782
000370 36 1e da 3c be 5b 3d 3c 4a c0 45 bc 96 63 31 bc
       0.026625734 0.011557518 -0.012069771 -0.010826966
000380 79 3b 2c bd 38 6c 96 bc 5a 20 02 bd 12 32 b9 bc
       -0.042048905 -0.01836215 -0.031769134 -0.022606883
000390 94 15 18 bd 54 73 32 3b 44 77 3e 3c 5d e3 fd 3c
       -0.037129954 0.0027229385 0.011625115 0.030992204
0003a0 2c a3 09 3d a4 ae 1d bd 29 62 0c 3d b2 32 bd bc
       0.03360288 -0.03849663 0.0342733 -0.023095462
0003b0 70 aa c8 3b e7 fa 31 bd b3 5b 97 3c d3 b1 1e 3d
       0.0061238334 -0.04345217 0.018476343 0.038743805
0003c0 1c 2d 92 bc 55 ff 33 bd 81 da e2 3b 16 99 56 bd
       -0.017843775 -0.043944675 0.0069230204 -0.052392088
0003d0 10 74 03 3d 54 10 97 bc 53 7b 15 bd 73 13 0e 3d
       0.032093108 -0.018440403 -0.036494564 0.034686517
0003e0 92 e5 c7 3c b2 ef 41 bc fb 3b c1 bc f1 4c d9 bb
       0.02440146 -0.011836933 -0.023588171 -0.0066314866
0003f0 f2 79 94 3b 44 8b 30 3d 99 b5 56 3d a4 d0 ab 3c
       0.0045311386 0.043101564 0.05241928 0.020973511

bias f4 [32]
000000 a3 a8 6a 3c 6b 6d 07 bd c9 d0 9f 3a 71 22 c7 bc
       0.014322433 -0.033063333 0.001219296 -0.024308415
000010 60 73 b5 bb ef bc a8 3b 32 7d bb bc ea 17 c1 3b
       -0.0055374354 0.0051494758 -0.022886846 0.0058927434
000020 af a0 1f 3c 45 8b 7f 3c 48 bb f0 3c c0 79 d1 bc
       0.0097429 0.015597169 0.029386178 -0.02557075
000030 49 be dd 3a c1 2d e9 bb 9d 91 db bc 80 2f 69 3c
       0.0016917671 -0.00711605 -0.026802832 0.014232516
000040 3d cc 39 3c 8d 41 22 3c cd de e0 3c d3 4e b4 3b
       0.011340198 0.009903324 0.02744999 0.0055025606
000050 f4 3e ed 3c 05 76 37 3d cf ef 0a 3b 8d 3b 0b 3d
       0.028960682 0.044790287 0.0021200066 0.03399234
000060 f7 3f a3 3c 19 38 43 bc 0e a8 35 3d a5 4f 0e bc
       0.019927962 -0.01191523 0.044349723 -0.008685981
000070 ac 9d f7 bb 1c ce 73 3b b8 4d 1d 3c f6 88 13 bc
       -0.0075566377 0.0037201708 0.009601049 -0.009004822

weight f4 [20, 32]
000000 a6 98 8e be f7 6b 16 3e 14 bb 21 be 8b 6c 8c 3e
       -0.27850837 0.14689623 -0.15794021 0.27426562
000010 a1 13 14 3e 56 c5 45 be 36 10 6c 3e f4 4f 48 3d
       0.14460613 -0.19313559 0.23053059 0.048904374
000020 ee 0c 0d be bc 8a e5 3d 2b 11 74 bd c8 65 17 be
       -0.13774464 0.11208102 -0.059586685 -0.1478492
000030 6e 6c ba 3d 38 e6 21 3e 5b 19 9d 3d 43 c7 f9 3d
       0.091027126 0.15810478 0.07670852 0.12196209
000040 ab 6b 27 be 0c cf 86 3e 28 71 e6 3b 12 e7 43 bc
       -0.16349666 0.2632984 0.0070325322 -0.011956947
000050 cb bb fa 3d 48 23 14 3e 5c 82 42 bd 74 40 b3 3d
       0.1224285 0.14466584 -0.0474876 0.08752528
000060 ab 6d 99 3d 8b 20 84 3d 38 b0 17 3e ec 6b 51 3e
       0.07491621 0.064515196 0.14813316 0.20451325
000070 c4 11 9d bd b8 16 96 bd 6a db d9 bd 26 d1 f0 3d
       -0.07669404 -0.07328552 -0.10637553 0.11758642
000080 b2 5d 0d 3e 2d 4b 8d 3d 21 ef 4c 3e 14 1a 40 3e
       0.13805273 0.06899104 0.20013095 0.18759948
000090 96 46 9c bd d9 cd 2c 3d 96 51 80 3e e0 53 01 3e
       -0.07630651 0.0421885 0.25062245 0.12629652
0000a0 95 ff 38 3e b2 33 2d be 47 56 43 bd c0 7b cc 3d
       0.18066247 -0.16914251 -0.047689702 0.09984541
0000b0 74 24 00 3d 3e 52 e5 bd 89 9f 14 3d 7a 71 27 be
       0.031284764 -0.11197327 0.036284957 -0.16351882
0000c0 65 b8 9b 3d 14 52 01 be 7d 4d 25 be 8a fa f6 3d
       0.0760353 -0.12628967 -0.1614284 0.12059505
0000d0 8b 0e f0 3b f7 e0 d8 3d 09 ef 34 3e 4e 2f 3e bd
       0.0073259524 0.10589784 0.1766931 -0.046431832
0000e0 6f eb 24 3e de 8b 3a 38 43 c1 09 be 97 b1 10 3e
       0.16105436 4.4476117e-05 -0.1345263 0.14130245
0000f0 77 53 4b 3e de 2e b9 3d 62 9f 7c be bc 8d 7f 3e
       0.19856058 0.09042142 -0.24670175 0.24956411
000100 00 7d 89 3c cf ef 1a 3d 5c 9b 7a 3d d3 7e 4b be
       0.016783237 0.037826356 0.06118332 -0.19872598
000110 4d 43 c1 3d 16 0d ac 3d dd e5 4e be 21 c9 0f 3e
       0.09436665 0.084009334 -0.20204873 0.14041568
000120 b1 ce ed 3d 29 77 ba 3b bc 6b 91 bd ad 8a 34 3e
       0.11611689 0.0056904745 -0.07100627 0.17631026
000130 19 5d 9e 3c 61 09 49 be 53 c8 db bd 03 e8 53 bd
       0.019331502 -0.19632484 -0.10731568 -0.051734935
000140 a7 09 15 3e 18 d9 df bc da 39 56 3d a8 aa 08 3e
       0.14554463 -0.027325198 0.052301265 0.1334635
000150 4b 59 9b 3d 38 6c c4 bc e4 69 d2 bc c0 ba 0c bd
       0.07585391 -0.023977384 -0.025685258 -0.034357786
000160 b4 fb 5b be 56 f1 e1 3d 5c b0 ed 3d 56 79 31 be
       -0.21482736 0.11032359 0.116059035 -0.17331442
000170 d9 63 5d bd 75 34 2c 3d 5b 5c 58 3e 49 ad 33 be
       -0.0540503 0.042042214 0.21128981 -0.17546572
000180 78 2c 7c 3e 22 cc 12 bd 0d 2c 16 3d 5f cf 7d be
       0.24626338 -0.035839207 0.036663104 -0.24786137
000190 78 3e 57 3c 94 24 98 bd 40 b6 db bd bf 4f 48 bd
       0.013137452 -0.07428852 -0.10728121 -0.048904177
0001a0 f8 01 36 39 ce 0a 6d bd 5f 2b 00 3e 28 d4 2a 3e
       0.00017357606 -0.057871632 0.12516545 0.16682494
0001b0 8f 64 32 bd fb 45 37 bd 84 bc 17 3c a0 33 6c bd
       -0.04355293 -0.044744473 0.009261254 -0.05766642
0001c0 71 f9 ae bd 16 4e 19 be 4d 24 f9 3d 42 b0 08 3e
       -0.08543671 -0.14971194 0.12165127 0.13348487
0001d0 57 34 66 3d 46 7d c5 bd 86 88 13 bc ed 3d 0a 3e
       0.05620226 -0.09643035 -0.009004718 0.13500185
0001e0 8f f7 0f be 2c 80 57 3e 0e bb ca bd fa 68 12 3e
       -0.1405928 0.21044987 -0.09898959 0.14297858
0001f0 3d 2e 95 3d 3e 23 7c bb 2d 5c d3 b9 a5 22 3a 3d
       0.0728421 -0.0038473154 -0.00040313732 0.045443196
000200 23 ad 36 be 48 b1 4e bd 1a c9 b9 bd b0 26 32 3e
       -0.17839484 -0.050462037 -0.0907156 0.1739757
000210 36 7f 6d be c5 90 25 bd 4d 5f 4f be 6e 2b 1b 3e
       -0.23193058 -0.040421266 -0.20251198 0.15153286
000220 65 75 e1 3d f3 7e 68 3e 64 49 9d bd 8f 96 40 be
       0.11008719 0.22704677 -0.07680014 -0.18807434
000230 6a d1 f1 bd a0 cb 99 be 1f eb c6 3d f4 ba 24 be
       -0.11807521 -0.30038166 0.097128145 -0.16086942
000240 5c 06 c7 bd 80 6c 35 3e 1e 71 38 bd 2e 29 43 3e
       -0.0971801 0.1771717 -0.045029752 0.19058678
000250 f4 99 f5 3d d8 43 aa bd e6 61 88 3c 45 d7 45 3d
       0.11992255 -0.083137214 0.016648244 0.048301
000260 b8 69 e3 bd ab 3c 06 bd 7b 28 42 bb fc b6 c8 3d
       -0.111041486 -0.0327727 -0.002962618 0.098005265
000270 4e a1 90 3d 8c 9b 15 3e 79 6c be 3d 4e 22 ac 3d
       0.070620164 0.14610118 0.09298033 0.084049806
000280 b1 bb 4a bd 24 d5 73 bd f3 05 5c be 36 2b 0b be
       -0.049495403 -0.05952944 -0.21486644 -0.13590702
000290 86 cb 76 3d 18 92 cb 3d fb ea ad bd 11 e4 47 bc
       0.06025269 0.099399745 -0.084920846 -0.012200371
0002a0 49 c7 01 bc 1f a2 90 bd a9 67 23 be 23 87 37 be
       -0.007921048 -0.07062172 -0.15957512 -0.17922644
0002b0 57 54 27 bd 06 ca 62 be 4e 86 c3 bd cb 2b d7 3d
       -0.040851917 -0.22147378 -0.09547101 0.105064
0002c0 81 d4 85 bc 28 39 35 3e 85 66 3c 3e 7a 9e d0 3d
       -0.016336681 0.17697585 0.18398483 0.10186477
0002d0 07 cd 18 3e e3 83 72 3d 8c 86 3f 3e 8d 34 14 3e
       0.14921962 0.05920781 0.1870367 0.14473172
0002e0 23 35 26 be 5a a3 e5 bd d6 f2 3d be c7 c9 55 3e
       -0.16231208 -0.112127975 -0.18549666 0.20877753
0002f0 f7 05 05 3e 28 b3 15 bd a2 6a 29 3e 5a 2a ad 3d
       0.12990557 -0.03654781 0.16544583 0.084553435
000300 c6 fc bb 3d 52 05 97 bd a0 89 ff bd 77 c6 c3 3d
       0.09179072 -0.07374062 -0.12477422 0.095593385
000310 b5 f7 2f be 95 6b c1 3d 0e 59 85 be 74 59 5a bc
       -0.17184336 0.09444348 -0.26044506 -0.013326991
000320 22 8c 28 be d5 a4 d0 bd 6b e5 15 3e c2 a8 16 3e
       -0.16459706 -0.10187689 0.14638297 0.14712813
000330 c8 2a 94 3d f9 55 40 3e ee cd 50 3d 1a 8a 01 3e
       0.072347224 0.18782796 0.05097764 0.12650338
000340 ff 03 f2 3c 10 94 d3 3d b8 e6 16 3e d2 1d fb bd
       0.029542921 0.10330975 0.1473645 -0.12261547
000350 0b 5f cf 3d be ae 0b bd 6f 14 21 be dd e3 1a bd
       0.1012555 -0.034102194 -0.15730451 -0.037814964
000360 83 b6 14 be 54 9d 8e bd 4f 36 12 be 8c 0a cb 3d
       -0.14522748 -0.06963602 -0.1427853 0.09914121
000370 a0 e0 87 bc cb 43 13 be 50 a5 9d 3d 32 9c 12 3d
       -0.016586602 -0.1438133 0.076975465 0.03579349
000380 a3 6f 51 3e 4b 08 ef 3d 0d 07 10 3b 33 9d 00 3d
       0.20452742 0.11671504 0.002197686 0.031399917
000390 c6 2e 93 be be 30 8a bd de b6 ec 3d 43 2c d1 bd
       -0.28746623 -0.06747578 0.11558317 -0.102135204
0003a0 94 27 e8 3c 9d 0e 10 3e 75 d3 da 3d ef 4a e5 bd
       0.028339185 0.14068075 0.106848635 -0.11195933
0003b0 33 fe 4b be 3d b9 a6 be 28 62 b4 3d 13 97 cd bd
       -0.19921188 -0.325632 0.08807784 -0.10038581
0003c0 56 6c 3b 3d b0 cb 35 bd 78 95 32 be c6 33 bd bd
       0.045757614 -0.044383705 -0.1743983 -0.092383906
0003d0 f0 ac 86 3e b7 54 80 3b 14 8c f4 bd 42 19 34 3e
       0.26303816 0.003916349 -0.1194078 0.1758776
0003e0 4d a0 29 be 0c d8 25 3e 33 bf 31 bb c0 e4 86 3d
       -0.16565056 0.16195697 -0.002712202 0.06586599
0003f0 a1 e1 84 3e 07 8b fa bc 9c e7 59 be 42 ef 6e 3e
       0.2595339 -0.030583872 -0.21279758 0.23333457

bias f4 [20]
000000 22 ed 23 3e 1e da cc 3d df 5d e7 bc e3 aa 37 3d
       0.16008428 0.1000254 -0.028243003 0.044840705
000010 45 f2 15 bb 9b 40 ae 3d 34 bc 04 be 89 ed 43 3e
       -0.002288 0.08508416 -0.12962419 0.19133581
000020 73 69 eb bc af 68 d5 bd dd 8a 20 be be 61 6d 3d
       -0.028736806 -0.104203574 -0.15677972 0.057954542
000030 19 d6 bd bd 43 ca 04 be fb 6a 01 bd 83 d7 52 3e
       -0.092693515 -0.12967782 -0.031596165 0.20590024
000040 e1 d3 ce 3d 59 b4 93 bd 57 34 76 3d 1d e6 84 bd
       0.100990064 -0.07212133 0.06010851 -0.06489203

weight f4 [10, 20]
000000 dc 75 9a 3e db ff 72 3a b9 d7 40 be 9d f5 b4 3c
       0.30168045 0.0009269693 -0.18832292 0.022089774
000010 a1 45 f1 3d 85 99 9f bc b2 e5 04 be a1 ec 0b be
       0.11780859 -0.019482384 -0.12978247 -0.13664486
000020 13 85 98 3e 36 05 05 3e 51 1a ee 3c 5c da 85 be
       0.29789028 0.12990269 0.029065283 -0.26143157
000030 53 49 13 3e 7c ba c8 bd 19 70 4a 3e 23 2e f7 bd
       0.1438344 -0.09801194 0.19769324 -0.12069347
000040 6c b8 b6 3e 35 3e 3a be e8 b0 5e bd 97 4a a5 bc
       0.35687578 -0.18187793 -0.05436793 -0.020177169
000050 43 4a ba 3e 97 1e 56 be 07 ae 3a be 69 e0 85 be
       0.36384782 -0.20910107 -0.18230449 -0.26147774
000060 d6 24 ba 3e ee 65 a6 3e 7b a9 93 bb af 66 d5 3d
       0.3635623 0.3249964 -0.0045062876 0.10419976
000070 09 fb fe 3d 1a 88 2a be 20 0f 9b be 67 39 56 be
       0.12450225 -0.16653481 -0.30284977 -0.20920335
000080 12 38 5e be 7c bb 08 3e e8 72 32 be d6 47 77 3e
       -0.21701077 0.1335277 -0.17426646 0.24148497
000090 0f 6f 82 bd 46 4c fe 3b 9c ac 06 be 0b d3 5a 3e
       -0.06368839 0.0077605573 -0.13151783 0.21369569
0000a0 1b 15 6c 3e 22 d5 5f 3e 10 e0 ce ba 18 78 35 be
       0.23054926 0.21858647 -0.0015783329 -0.17721593
0000b0 2b f3 86 be 22 d2 88 be 9a ae 4e be 80 09 08 3d
       -0.26357397 -0.2672282 -0.20183793 0.033212185
0000c0 58 a9 78 be 80 38 94 be 92 17 3b be 2b ad a0 3e
       -0.2428335 -0.28949356 -0.1827071 0.31382117
0000d0 4d f0 1c 3e 95 0e 83 3e ff 9c 45 3e 9a 33 bf 3d
       0.15326042 0.25597063 0.1929817 0.09336014
0000e0 58 29 5f be b9 09 a2 be 3e 8c 9d be 14 16 8e bd
       -0.21793115 -0.31648043 -0.3077106 -0.06937805
0000f0 1e 54 54 be c2 c6 93 be 11 c3 75 3e 79 d6 3d 3e
       -0.20735213 -0.28862578 0.24000193 0.18538846
000100 38 cf d4 3d e5 08 0f be 70 c3 06 be 98 70 bb be
       0.10391086 -0.13968237 -0.13160491 -0.3660934
000110 d7 77 be bc 08 5a 83 3d c8 41 1b 3c 1c 61 b9 3e
       -0.023250503 0.064136565 0.009476133 0.362069
000120 30 a4 ee bb 6c 12 38 3e e6 37 c5 3d 19 08 d7 3d
       -0.0072827563 0.17975777 0.096298024 0.104995914
000130 14 24 84 be 78 28 63 be bc 8e 9a bd a9 2f 63 bd
       -0.25808775 -0.22183406 -0.07546756 -0.055465374
000140 e9 88 9e be a6 24 a0 3e 53 94 d1 3d 7d d8 4f 3e
       -0.3096383 0.3127796 0.10233369 0.20297427
000150 1b 8d a1 3e 93 cb 79 3d 28 62 ef bb 79 af af 3e
       0.31552967 0.06098516 -0.0073054023 0.34313563
000160 31 ca 25 be b2 72 16 be d3 b6 58 3d 70 b3 31 3e
       -0.16190411 -0.1469219 0.05290873 0.17353606
000170 3e 1b 3c 3e 54 6e 5b bd d8 bb a5 3e 0c 6f 5a be
       0.18369767 -0.053572014 0.32369876 -0.21331424
000180 66 2e 74 be aa 76 9d 3d f7 4c 59 3b f8 db 7e 3e
       -0.23845825 0.07688649 0.0033157447 0.24888599
000190 cc f0 1d be 08 d1 dc bd a3 8c 6f 3d 3d ea 50 3d
       -0.15423888 -0.10782057 0.05848373 0.051004637
0001a0 25 36 1c 3e c7 73 65 3d 54 85 90 3e e2 5b cd 3d
       0.1525503 0.056018617 0.2822672 0.10027291
0001b0 a9 c5 b8 bc fb 25 d5 3e 75 31 55 be 95 e0 5d be
       -0.02255519 0.4163054 -0.20819648 -0.21667702
0001c0 3f 88 0b 3e 1b df 8c 3d 82 8b cf 3b 5a 57 f3 3d
       0.13626193 0.068784915 0.0063337693 0.11881895
0001d0 50 55 fb 3d 41 3c 9b 3d c1 f6 38 bc 72 e3 08 be
       0.122721314 0.07579852 -0.0112892995 -0.13368014
0001e0 0d 3f e9 3d 83 2e a1 3e 97 bd 92 be 41 00 fb 3d
       0.11388979 0.31480798 -0.2866027 0.12255908
0001f0 d2 4c 24 bd ab af 03 bc 5b 7d e4 bd 68 18 86 3e
       -0.040112324 -0.008037488 -0.11156722 0.26190495
000200 e3 25 44 3e f8 c8 15 be 0d 3e c5 bd 64 a5 4b be
       0.19155078 -0.14627445 -0.09630976 -0.1988731
000210 76 f7 b3 3e b0 8f 00 bd bc 62 53 3e 2d 33 e2 bd
       0.35149735 -0.03138703 0.20643133 -0.11044917
000220 01 b5 23 bd 14 1a 83 3e 53 93 1c bd 0c 43 5f 3e
       -0.03996754 0.25605834 -0.038226437 0.2180292
000230 dd db 05 be a5 aa 5d bd a0 f3 6b be 4c b2 09 be
       -0.13072152 -0.054117817 -0.23042154 -0.13446921
000240 73 68 36 be 1c 74 3e be ae ea 87 3e ad 09 bc be
       -0.17813282 -0.1859898 0.26546234 -0.36726132
000250 ff c7 4a be 9b 4d 08 3e e5 25 a0 3e d8 a2 3a 3d
       -0.19802855 0.13310854 0.3127891 0.045565456
000260 72 29 98 be 7b d1 85 3e f2 6b 88 be 9f 2b 28 be
       -0.2971912 0.26136383 -0.26644856 -0.1642289
000270 30 ab 0e be 57 55 78 be d4 be f3 bd 0b 54 10 3e
       -0.1393249 -0.24251305 -0.11901632 0.1409456
000280 a1 37 68 be c1 00 7b 3d 1a 32 07 3e fe ce 55 3e
       -0.2267747 0.061280016 0.13202706 0.20879743
000290 a9 22 df bd 95 ef 11 3e 79 4c 02 be 4b 9d fb 3c
       -0.10895283 0.1425155 -0.12724485 0.030714652
0002a0 ad 0c 45 be 9b 8a 78 bd 4b cc 3b be cc a7 54 3e
       -0.19243117 -0.06067906 -0.1833965 0.20767134
0002b0 d6 fa 23 bd c0 e4 05 be 45 49 42 be 75 da 7f bd
       -0.040034138 -0.13075542 -0.18973263 -0.062464196
0002c0 78 6a 0a 3d 58 83 4d be bb 0b b8 3b e5 d3 bd ba
       0.033792943 -0.20069635 0.0056166328 -0.0014482705
0002d0 cf 18 8f be bf 4a b2 3d 16 d6 7e 3e 2a 77 90 3e
       -0.27948615 0.08705663 0.24886355 0.28215915
0002e0 e2 b2 88 be 49 e2 f5 3d fa 93 2c 3e 25 49 5a bd
       -0.26698977 0.12006051 0.16853324 -0.053292412
0002f0 e3 6b 1c bd 5a 3c 2c bd 0d 4f b2 3c 98 10 ec bd
       -0.038188826 -0.042049743 0.02176621 -0.115266025
000300 8e 65 bb 3c 0d 53 e2 bd 91 fb 09 be 95 49 03 bb
       0.022875573 -0.11050997 -0.13474871 -0.0020032872
000310 da 24 de bc d1 60 5f 3e 26 cb 7c 3e 40 f9 a3 bd
       -0.027117182 0.21814276 0.2468687 -0.08006525

bias f4 [10]
000000 3c 5c 60 bc c8 4d 48 3e 16 c7 4f be 4f 07 00 3e
       -0.013693865 0.19560921 -0.20290789 0.12502788
000010 74 f2 9d 3d 83 f9 95 3d d2 03 99 bd 06 b7 42 3e
       0.0771226 0.07322981 -0.07471432 0.1901513
000020 82 9e 41 bd 20 d0 85 3d
       -0.047270305 0.06533837
