deep-learning-lab/DL-Lab/lab 6/q3_checkpoints/checkpoint_best.pth (torch, 157032 bytes, 10 tensors)

net.0.weight f4 [32, 1, 3, 3]
000000 f1 1a c8 be a0 61 de 3d 58 ec 35 3e 93 88 29 3d
       -0.39083055 0.10858464 0.17765939 0.041390013
000010 42 e0 67 3e 26 13 da 3e b5 b2 db bd 5d d8 d1 3e
       0.22644141 0.42592734 -0.10727445 0.40985385
000020 41 08 98 bd a6 b7 24 be 2d f8 8d 3e e1 a4 49 3d
       -0.07423449 -0.16085681 0.27728406 0.049229506
000030 3f cf 6d 3d b2 06 ee 3e 31 12 89 3e 61 7c fa 3d
       0.058058973 0.46489483 0.2677169 0.12230755
000040 01 af 81 3e 73 84 bd 3e 95 1b 2b bd d8 f9 7d bc
       0.2532883 0.37015113 -0.04177435 -0.015501462
000050 f9 db 6c 3e a9 ac 1a be 47 f0 30 3e ec 4d d9 3e
       0.23130788 -0.15104927 0.17279159 0.42442262
000060 a1 b9 8d 3d 10 dc e7 3d 9b d4 e3 3e 72 ab 81 be
       0.069201715 0.113212705 0.44498143 -0.25326115
000070 21 08 99 bc 37 02 52 be 56 04 3d be 02 8d bc be
       -0.018680634 -0.20508657 -0.18458685 -0.3682633
000080 5b 0f 37 bd 24 af 23 3c 2f 51 c1 be a4 a3 07 be
       -0.04469238 0.009990487 -0.3775725 -0.13246018
000090 a2 e0 29 be 9f 0b b0 3e 9c 78 9a 3d 0a d7 61 3e
       -0.16589597 0.34383866 0.07542536 0.22054687
0000a0 c5 4b 15 3e 8d 1e 8f 3d 11 64 72 3e 6e 61 b7 be
       0.14579685 0.06988249 0.23670985 -0.3581652
0000b0 bf cd 4a be 99 e3 2e be 58 57 9e bc fc b7 c9 3e
       -0.19805048 -0.17079009 -0.019328758 0.3939818
0000c0 c9 c7 42 be 0c 22 cd 3e 7d db 41 bd 30 45 15 3e
       -0.19021524 0.40065038 -0.04732846 0.14577174
0000d0 32 8e a8 3e 72 ac df 3d 18 05 8f 3e aa cc e0 3d
       0.32920986 0.10921563 0.27933574 0.109765366
0000e0 af 5b 94 3e 6d 08 88 3c 22 42 3b 3e a3 d0 1d 3e
       0.289762 0.01660558 0.18286946 0.1541162
0000f0 5b 5f 0c be 6a 7b 0d 3e 87 00 89 3e c6 b0 e1 3d
       -0.1370825 0.1381661 0.26758215 0.11020045
000100 23 b8 8e be 15 61 8d 3e 55 6c ae be 81 63 23 3d
       -0.2787486 0.2761313 -0.34067026 0.039889816
000110 18 94 15 bd 92 36 64 3e d3 69 5d 3e 70 69 58 3e
       -0.036518186 0.22286442 0.216224 0.21133971
000120 4a eb 66 bd 26 2e 26 be 87 93 d7 be 3f b5 c7 bd
       -0.056376733 -0.16228542 -0.42104742 -0.09751367
000130 28 e3 95 be 71 5d c5 be a6 d1 75 3e ad 28 e1 3d
       -0.2927487 -0.38547853 0.24005756 0.109940864
000140 1a 53 b1 be b8 75 43 bd 80 f6 85 be b2 7f d6 be
       -0.34633714 -0.047719687 -0.26164627 -0.418943
000150 06 3a a4 be c3 06 38 be ff 03 44 be 57 02 cc 3e
       -0.32075518 -0.1797133 -0.1914215 0.39845535
000160 e7 d5 0f 3f 23 0c 18 3f 06 f8 93 be 6f e8 ba 3e
       0.56185764 0.5939352 -0.28900164 0.36505458
000170 1e f6 00 be 53 9b fa bc 58 db 4a 3d c8 92 ca bd
       -0.12593886 -0.030591642 0.04952559 -0.098912776
000180 58 27 07 bc e6 cb 84 3e 1a b4 5a be 0a 1b 9c 3e
       -0.008249126 0.25936812 -0.21357766 0.3048938
000190 8e eb e4 bd e3 82 53 bd 26 c3 b3 be c4 b5 a2 3d
       -0.11177741 -0.051638495 -0.35109824 0.07944825
0001a0 8c cd 82 3e c5 cc 4c be 23 2e 3d 3e b6 99 7d bd
       0.25547445 -0.19999988 0.18474631 -0.06191417
0001b0 4d 8e c7 3e 37 11 75 3d b1 4c ab be 28 3b 3f be
       0.38975754 0.05983087 -0.33456948 -0.1867491
0001c0 62 72 c8 3b 92 ac 7c 3e 46 9c 6e 3e 1d 3b a9 be
       0.006117151 0.24675205 0.23301801 -0.33052912
0001d0 c3 3f a4 be 58 bb 90 be 7d a4 0a 3e 5e 9f 3c be
       -0.32079896 -0.28267932 0.1353931 -0.18420169
0001e0 7e e0 34 bd de 31 b5 be ed 06 a6 be 85 d8 b9 be
       -0.044159405 -0.35389608 -0.3242716 -0.36298004
0001f0 d2 13 82 be d4 d0 68 3c b3 c0 3e 3e 02 dd f3 bd
       -0.25405747 0.014209945 0.18628196 -0.11907388
000200 61 db fd bd 7b 7a 36 3d 13 af aa 3e 8c fb 99 be
       -0.12395359 0.0445504 0.33336696 -0.30074728
000210 71 9a fa 3c 65 2b cd 3b c3 33 95 3e 17 01 95 be
       0.030591222 0.0062612765 0.29141054 -0.29102394
000220 6a 46 b0 be 86 a0 5f be e1 1b 02 3e b8 ed 1a 3e
       -0.34428722 -0.21838579 0.12705947 0.15129745
000230 db 7d c1 bc 76 f1 82 3c a3 f6 96 be 69 61 62 be
       -0.023619583 0.015984278 -0.29485044 -0.22107472
000240 91 55 6c 3e 3f c1 7f 3e 78 e1 d8 3e 58 04 1d 3e
       0.23079516 0.24976061 0.4235952 0.15333688
000250 58 f8 bf bd 43 a0 bf 3d 38 4d 21 3e 5d 64 c2 be
       -0.0937354 0.09356739 0.15752113 -0.37967196
000260 67 c3 00 be 10 2d 99 be 5b a1 3f be 22 0a 7d be
       -0.1257454 -0.29917192 -0.18713896 -0.24710897
000270 7f da a4 3d 79 2d b5 be 86 94 6c be df 31 95 be
       0.08049487 -0.35386255 -0.23103532 -0.2913961
000280 2d 23 41 be 8e 3e 6c be b1 7e ba bd 0e 7f 88 3d
       -0.18861075 -0.23070738 -0.09106196 0.06664859
000290 1a f3 a7 be 48 82 bb 3e ac 70 a7 bb 12 83 6b 3d
       -0.3280266 0.36622834 -0.005109867 0.057498045
0002a0 0b 2a 32 3e db 64 9d be 6b 00 8b be 84 2a 57 3e
       0.1739885 -0.3074101 -0.27148756 0.21012312
0002b0 9b e7 61 bd bd eb 9e be 08 9f b3 3d f1 5a 22 3c
       -0.055152517 -0.3103923 0.08770567 0.009909377
0002c0 4c d3 4d 3c 84 6b db 3c 6d e2 34 3e b3 8a 67 be
       0.012562584 0.026784666 0.176645 -0.22611503
0002d0 7d a2 2f 3e 7b 2d 9b 3d 5d 67 63 be 8a 7f 82 be
       0.17151828 0.07577034 -0.22207399 -0.2548793
0002e0 70 dd 1f 3d d0 86 ad be b8 a3 2b be 59 f3 08 3e
       0.03902954 -0.33891916 -0.16761672 0.1337408
0002f0 6c fc dd 3e 39 79 b5 3e dd 90 d6 bb ea 63 84 be
       0.43356645 0.35444048 -0.006548031 -0.25857478
000300 00 fa 2f be 0c 66 33 be a5 d2 e9 3d 27 fc 3e 3e
       -0.17185211 -0.17519397 0.114171304 0.18650876
000310 43 4b 6d bd e2 ee 0d be bf 15 78 3e fc 8f 29 be
       -0.057933103 -0.13860658 0.24227045 -0.16558832
000320 e3 19 71 be 41 44 cf 3e 4e 65 6a 3d 4e 2f 8b 3d
       -0.23545031 0.4048176 0.057225518 0.06796132
000330 9f af 5d 3e e1 e5 81 bd 9d 9c 00 bd 63 e1 ad 3e
       0.21649025 -0.06342674 -0.031399358 0.3396102
000340 8c 73 8b 3d 12 e1 b8 3e c0 0e 1d 3e 60 7e 81 3d
       0.06809148 0.36109215 0.15337658 0.06322932
000350 75 76 67 be fb 08 83 3e 00 6a 85 3e 4f 67 68 3d
       -0.22603782 0.2559279 0.26057434 0.056739148
000360 e0 72 2e 3e b1 95 c3 bd 69 b3 34 be f0 47 bf 3e
       0.17036009 -0.09550036 -0.17646565 0.3735957
000370 b9 f4 26 3e 75 6a 91 3e 7b 6f 18 3d 20 3c 36 3e
       0.16304292 0.28401533 0.03721569 0.17796373
000380 87 ce 77 3e 86 a8 53 be 91 4c c4 bd 0c 2b cf 3e
       0.24199878 -0.20669755 -0.095849164 0.4046253
000390 6e 61 1e bd 3f bd 07 bd 03 bb 3b 3e 39 39 91 3d
       -0.038667135 -0.033139464 0.18333058 0.070909925
0003a0 47 59 7a bc ce 1b a7 be 78 e8 f4 bd 30 9c a2 3d
       -0.015280074 -0.326384 -0.119584024 0.07939947
0003b0 9b df a3 3e 9e c0 62 bd 96 51 e1 3d 34 ed 1e 3d
       0.32006535 -0.055359475 0.110018894 0.038800433
0003c0 2b 58 88 bc 4a 78 53 3d 86 85 ab be d6 9b b8 bc
       -0.016643604 0.05162839 -0.33500308 -0.022535246
0003d0 25 4a 53 3d 64 d3 45 be 67 95 e7 bc 26 7e 52 3e
       0.05158438 -0.1931892 -0.028269483 0.20555934
0003e0 6e 1e 84 be 2a 37 82 3e 55 8b 0e 3c c9 b3 c0 3e
       -0.25804466 0.25432712 0.0087002115 0.37637165
0003f0 3f 7b 5b be 9f 3e d8 be 6a f8 a7 be ef 59 d1 be
       -0.21433733 -0.42235276 -0.32806712 -0.40888926

net.0.bias f4 [32]
000000 a8 8a 8c 3e ec e5 0c bd 67 d7 0f bd 56 df f6 3d
       0.27449536 -0.034398958 -0.035117533 0.12054317
000010 73 07 81 3d 34 2d 23 3e 0c 64 1f be 71 3f 61 3e
       0.06300249 0.15935212 -0.15565509 0.21996857
000020 27 ac 6c 3e e5 ee 09 3e ab 71 60 be 9e d6 59 be
       0.23112546 0.13470037 -0.21918361 -0.21273276
000030 9c bb 02 be a4 f0 49 bc 38 9b dc 3d b8 0b 44 3e
       -0.1276688 -0.01232544 0.10771793 0.19145095
000040 d0 0a 47 3e b2 21 55 be 40 7d 93 be 64 80 a9 bd
       0.19437718 -0.20813635 -0.28806496 -0.08276442
000050 25 6a b8 3d 9b 7c 2d be f6 bd 29 3e c2 3f 20 3e
       0.090046205 -0.16942064 0.1657637 0.15649322
000060 04 cc 60 be 2a 7c 7d 3d 67 82 f0 3c 96 e9 c9 3e
       -0.21952826 0.06188599 0.029359056 0.39436024
000070 39 24 30 3c 7b 10 2c 3e 73 59 02 3c 84 0f 52 3e
       0.010750824 0.16803162 0.007955897 0.20513731

net.3.weight f4 [64, 32, 3, 3]
000000 2c 56 1a bd e7 97 9b ba b6 e5 3b 3d aa 6a 87 bc
       -0.037679836 -0.0011870832 0.045873366 -0.016530354
000010 4c 39 3f bd 78 a4 36 bd 9b 3d 86 bc 10 81 54 3d
       -0.046685502 -0.044590443 -0.016386798 0.051880896
000020 85 5e e0 bc 01 c1 89 3d 11 47 47 3d 79 2a 96 bb
       -0.02738882 0.06726266 0.04865176 -0.0045827
000030 91 5e 03 3c 0b f0 3a bd 73 02 a9 ba b8 6d 51 3d
       0.008018152 -0.04563908 -0.0012894407 0.051130027
000040 02 73 0c bc 41 48 01 3d ed 2f c4 3c 4c 63 6a bd
       -0.008572342 0.031563047 0.023948634 -0.057223603
000050 23 43 4f 3c 57 74 9f bc a9 31 6b 3d 7c 9d 22 3d
       0.012650284 -0.019464655 0.057420406 0.03970097
000060 c8 96 6c 3d 5a 9d 4d 3c 29 ef 13 3a 77 8c 2e 3d
       0.057760984 0.012549723 0.00056432426 0.042614426
000070 06 cf 60 bd a3 67 46 3c ae 3b 3c bd 5c ff 60 3d
       -0.054884933 0.01210967 -0.045955352 0.05493103
000080 b3 9a e3 3c c1 85 54 bd bb e2 26 bc b5 3b 23 bd
       0.027783727 -0.05188537 -0.010185893 -0.039851863
000090 13 27 08 3d d7 cc ab bc 1a cf 38 bd 9f b7 be 3c
       0.03324039 -0.020971699 -0.045119382 0.023280917
0000a0 59 37 70 bc 86 0f b4 3a b0 ba 16 bd 0a 54 b3 bc
       -0.014661633 0.0013737537 -0.036799133 -0.021890659
0000b0 cb 16 98 3b 9b ff 2b bc 9f 09 3c bb e3 3b 77 3b
       0.004641389 -0.010497953 -0.0028692258 0.0037724904
0000c0 8f bc 4e ba ae b8 fc 3c c5 69 3d 3c f7 d6 e5 3c
       -0.0007886374 0.03084978 0.011560862 0.028056605
0000d0 0b f6 2f 3d 77 0b 98 bc d3 3f 7e 3c 38 67 1b bd
       0.042959254 -0.018560154 0.015518147 -0.037940234
0000e0 cf 8d 13 3d b1 c7 aa ba 17 dd 4b bd f8 b3 af 3c
       0.03602391 -0.0013029483 -0.049771395 0.02144812
0000f0 22 cd ee bc fa 17 2b 3d 47 f4 19 bd b9 40 2c bc
       -0.02915055 0.041770913 -0.037586477 -0.010513478
000100 07 1a 2f 3d ba d7 6e 3d 0a 6a 28 bd 54 4d bd bc
       0.04274943 0.0583112 -0.04111675 -0.023108162
000110 77 d1 46 3d 71 b3 42 bc 0c 73 06 bb 8b c7 3e 3d
       0.048539605 -0.0118836025 -0.002051535 0.046577018
000120 75 7b 79 3c d8 38 64 3c 48 60 41 3d 5c 55 11 bd
       0.015227188 0.013929568 0.04721096 -0.035481796
000130 ae 3c 7e 3d fa bc cc bb 11 e4 8d bc ab c1 a0 bc
       0.062069587 -0.0062481137 -0.017320665 -0.019623598
000140 a1 a7 71 3c e8 c8 13 bd 87 4c 9d b8 67 db bd 3b
       0.0147494385 -0.03608027 -7.500598e-05 0.005793977
000150 22 27 9a bc 33 5d 73 bd 65 96 14 3d a8 96 e2 3c
       -0.018817488 -0.059415054 0.03627624 0.02765973
000160 1f 27 8f bb d7 bb 16 3d 22 eb 54 3b 57 48 c9 3c
       -0.0043686773 0.03680023 0.0032488783 0.024570627
000170 b6 84 27 bc b5 21 51 bd 8f d2 1d bd e8 94 9c 3a
       -0.010224512 -0.051057536 -0.038530882 0.0011946233
000180 10 81 09 bd a2 23 03 bb 53 63 49 3c 1d 18 53 3c
       -0.03357035 -0.0020010252 0.012291747 0.012884167
000190 e1 f6 bd 3c be 43 61 3c 40 c6 bc bc 06 bf 56 3d
       0.02318901 0.013749061 -0.023043752 0.052428268
0001a0 42 64 5d bc 93 a3 df 3c 65 d5 00 bd 76 b5 04 bd
       -0.013512673 0.027299678 -0.03145351 -0.032399617
0001b0 2a 79 23 3d 7d f3 47 3b cc b1 23 bd b1 f6 bb 3a
       0.039910473 0.003051012 -0.039964482 0.0014340488
0001c0 7e 12 46 3c b3 f4 c7 bc 4c 45 ac bc 3c c7 80 3d
       0.01208937 -0.024408674 -0.021029137 0.06288001
0001d0 6f 86 2b bc ff 77 0a bd 2a 23 c9 bc a3 be 39 3d
       -0.010469063 -0.033805843 -0.0245529 0.04534782
0001e0 c8 72 1e 3d 9d 63 fc 3a 3b b3 72 3b db 6e 46 bc
       0.038683683 0.0019255761 0.00370331 -0.012111391
0001f0 18 98 1a 3c b9 aa 3a bd c9 63 45 3c 67 34 5f 3d
       0.009435676 -0.04557297 0.012047716 0.054493334
000200 3c 6c a0 3c 8f ea 01 3d cd 71 eb 3b a0 06 bd 3b
       0.01958286 0.031717833 0.007185197 0.005768612
000210 83 67 91 bc ac 05 5a bc f5 bb 13 bc ff 58 fd bc
       -0.017749554 -0.013307016 -0.00901698 -0.030926226
000220 46 1f 11 3d f0 46 f4 bc a4 b3 13 bd 77 f4 02 3d
       0.035430215 -0.029818982 -0.03605999 0.03197142
000230 f1 11 6b 3d 00 4e cd bc 51 a3 4d 3d 3e 79 6b bc
       0.057390157 -0.025061607 0.05020458 -0.014372168
000240 79 35 55 3c 4b f3 fd 3a e6 cd 28 bd 11 82 92 3c
       0.013013237 0.0019374875 -0.041211985 0.017884286
000250 b1 16 37 bd a1 89 aa 3c 3c 6c 99 b7 0e 88 ab 3c
       -0.044699375 0.02081758 -1.8289422e-05 0.0209389
000260 d1 c0 16 bd 5d 10 9b bc 18 9a b7 bc 06 65 54 bd
       -0.036804978 -0.018928701 -0.022412345 -0.051854156
000270 1a e8 64 bd 3b 38 9a bc e6 88 1d 3a 35 5d 6c bd
       -0.05588541 -0.01882564 0.0006009474 -0.057706077
000280 69 02 15 3d 4b ce 1c bc 83 35 0b bd 50 27 6f bc
       0.03637925 -0.009570668 -0.03398658 -0.014596775
000290 27 90 8f 3c 43 58 3e 3d 51 16 2f 3c bc 2a 87 bb
       0.017524792 0.04647089 0.010686473 -0.0041249674
0002a0 b7 f3 b4 bc ad 22 c9 bc e6 62 fe bb 62 d2 80 3d
       -0.022088869 -0.024552668 -0.0077632545 0.06290127
0002b0 00 db 46 3d 15 f9 07 bd 04 10 51 3d 58 a5 49 3d
       0.0485487 -0.033196528 0.051040664 0.04922995
0002c0 75 15 11 bc 5d e5 19 3b de 8e 63 3d 70 a3 5b bd
       -0.008855213 0.0023482658 0.05555617 -0.053622663
0002d0 ff 3d 12 bd 0e fb a7 bc de f1 a6 3c fe 88 da 3c
       -0.035703655 -0.020505454 0.020379003 0.026676651
0002e0 f7 b0 d2 3b cc 51 57 bd 5f a4 ac bc 0c a2 ca bc
       0.0064297873 -0.052568242 -0.021074472 -0.024735473
0002f0 1e 18 50 3d 53 b4 0f bc 93 a8 a6 3c a6 43 1f 3d
       0.05080425 -0.00877102 0.020344054 0.038882874
000300 73 cb 39 bd 40 9e 1c bd 9f 6c 41 bd 11 92 15 3d
       -0.04536004 -0.038236856 -0.04722273 0.036516253
000310 5e 99 3d 3d 7f 29 e5 3c 61 9e ab 3b ac 4f a0 3b
       0.04628884 0.027973888 0.005237386 0.00489231
000320 30 9a e0 bc d0 63 4e 3d 15 a7 c1 3c 2c 65 2e bc
       -0.027417272 0.050388157 0.023639241 -0.010644238
000330 15 a2 43 3d 4a 58 b4 3c 6d 29 a5 bc b0 90 fe 3c
       0.047761995 0.022014756 -0.020161355 0.031074852
000340 70 b4 a2 3a 0c 5d 5a 3d cf ab 84 bc 20 b1 fa 3b
       0.0012413394 0.053311393 -0.016195206 0.0076505095
000350 c3 7a 5e bd 8a 46 2d 3d a4 95 f3 bc f3 aa e9 3c
       -0.054316293 0.0423036 -0.02973444 0.028523898
000360 cc e4 74 3d 26 55 2c 3d 8f 37 fa 3a fa a2 4a bd
       0.05978851 0.04207339 0.0019090044 -0.049471833
000370 b1 9c 0b 39 b7 99 d2 3c 51 0a f1 bc e0 eb 18 3d
       0.00013314445 0.025708063 -0.029423865 0.037334323
000380 d4 4e ca 3c 94 2f 50 bd a0 a7 92 3b 74 41 8b bc
       0.024695791 -0.050826624 0.004475549 -0.016998984
000390 cc e4 43 3c f7 0d 67 3d f6 a7 e8 3c a0 4b bb 3a
       0.011956405 0.056409802 0.028400403 0.0014289506
0003a0 12 77 9d bc f0 eb 2e 3d e3 2e 32 bd cf a9 ad bc
       -0.019221816 0.042705476 -0.043501746 -0.021199135
0003b0 7d 24 84 bc d0 62 a2 3c fd 91 65 bd 2c 0c 62 bc
       -0.01613068 0.019822508 -0.05604743 -0.013796847
0003c0 bb 15 28 bd fd c7 24 3d bd b7 2a 3b 19 5e f0 3c
       -0.04103635 0.040229786 0.0026049458 0.029341744
0003d0 d0 91 82 3c 82 7e 86 3c e3 4a 75 bc 8f dd 37 bd
       0.01593867 0.016417746 -0.014971468 -0.04488903
0003e0 82 92 e6 3c ae 78 4e bd 14 36 ee bc c5 34 26 bd
       0.028146032 -0.050408058 -0.02907852 -0.04057767
0003f0 f4 e9 82 bc 3c cc ff 3c 7a 8f d3 3c 4d 7f 7e bd
       -0.015980698 0.031225316 0.02582525 -0.062133122

net.3.bias f4 [64]
000000 d9 1b 01 3d 77 cc 92 3b 71 2d 5f 3c 55 4f 5b bd
       0.0315207 0.0044799405 0.013621674 -0.053542454
000010 eb 4f cb 3b 32 21 62 3c 28 f3 af bc 72 fe 4f 3d
       0.0062045953 0.01380186 -0.02147825 0.050779767
000020 f5 24 33 bd 9e 8d 24 bc 7e 10 6f 3d ed af 87 3c
       -0.043736417 -0.01004353 0.058365338 0.01656338
000030 38 25 c9 3a 99 2f 8d bc ab 52 3b 3d 54 a3 8b bc
       0.0015346175 -0.01723461 0.045733135 -0.017045654
000040 5c 20 21 3c 56 a7 37 3d f8 32 c4 3c 19 fd dd 3c
       0.009834375 0.04483732 0.023950085 0.027098225
000050 9a e0 22 bd b0 c6 88 bb 05 d6 de 3c c4 ce 21 3d
       -0.039764978 -0.004174076 0.027201662 0.039503828
000060 ca eb b7 3c 55 81 a9 bc b4 09 27 bd b0 2f cc bb
       0.0224513 -0.020691553 -0.040780738 -0.0062312707
000070 22 11 0a 3b a0 18 ad 3c 6a 8d 22 3d 04 ac 10 3d
       0.002106734 0.021129906 0.039685644 0.035320297
000080 bf cc 47 bd 65 83 4c 3d 0c c8 48 3d b7 28 35 bd
       -0.048779245 0.049929995 0.049018905 -0.04422828
000090 3f 81 9f bc dc 78 24 bd c1 99 0b 3d 70 9c 52 bc
       -0.019470809 -0.040154323 0.034082178 -0.01285468
0000a0 48 20 5e bd 26 ac 02 bd cb 2d 4e bc fd 9d 09 bc
       -0.054230005 -0.031902455 -0.01258416 -0.008399484
0000b0 04 1a ee 3c 8a fc 80 bc f6 ef 1b bc e8 49 3f 3c
       0.02906514 -0.01574542 -0.00951766 0.0116753355
0000c0 26 d8 28 3d 02 34 d9 3c 47 55 29 3c d1 59 bb 3c
       0.04122176 0.026514057 0.010335273 0.022869976
0000d0 7b 10 ae bc 96 34 a6 3d 11 5a 1a bd ce 66 b5 bc
       -0.021248093 0.08115499 -0.03768355 -0.022143748
0000e0 81 22 94 bb 77 76 7b 3d 8a 8f c9 3c fb cf ff bb
       -0.0045207147 0.061392274 0.024604578 -0.0078067756
0000f0 cd e3 83 3c 49 9f 92 bc ca 09 11 3d f0 78 d9 3c
       0.016099835 -0.017898219 0.035409726 0.026546925

net.6.weight f4 [32, 64, 3, 3]
000000 ea a7 5a bb 17 54 ee bc 49 60 f0 3c 44 15 54 bc
       -0.0033364245 -0.029092832 0.029342787 -0.012944523
000010 5c 8a cf bc 5b f0 de 3c 71 c2 05 bd 18 62 a3 bc
       -0.02533453 0.02721422 -0.032656137 -0.019944236
000020 5c 07 55 bd f5 c8 1a bc 2c f1 98 bd e5 da 97 3c
       -0.05200897 -0.009447326 -0.07467875 0.018536994
000030 86 f0 71 bd 64 7d 0c 3d 50 9f 00 3d c4 bf f7 3c
       -0.05906727 0.03429927 0.031401932 0.030242808
000040 ca 98 6a bc 4f bd 0e bd 14 8d 83 3c f9 49 15 bd
       -0.014318654 -0.034848507 0.016058482 -0.0364475
000050 e3 f9 a5 bc 87 b5 2c 3c 67 a3 0a bc 6c 70 f0 bc
       -0.020260757 0.010541326 -0.00846181 -0.029350482
000060 64 0e 63 3c 41 c7 01 b9 0c b9 23 3b f0 e6 45 3c
       0.013858411 -0.00012376627 0.0024982123 0.012078986
000070 a6 32 57 bc 9b c8 d8 3c f4 8f a7 bb 1a a3 5d ba
       -0.013134634 0.026462844 -0.005113596 -0.0008454785
000080 01 e5 ac 3b 8f 3b 1b 3d e6 1d 3a bc b2 ec 1c 3d
       0.005276323 0.037898596 -0.011359667 0.038311668
000090 c9 1d 23 bd 8b 6a ab 3c 0f 11 5c 3d c2 95 35 bd
       -0.039823327 0.020924827 0.053727206 -0.044332273
0000a0 9e 25 87 bc 6e d3 d5 3b d1 d2 10 3d e3 16 51 bd
       -0.01649743 0.0065254485 0.0353573 -0.051047217
0000b0 97 56 b6 bd 25 7e 63 3c 98 1b 20 bd 5f b3 36 3b
       -0.089032345 0.013885056 -0.039088815 0.002787791
0000c0 fa f0 a8 bc a5 13 94 3c 68 f9 bb 3c 4b 30 c5 bc
       -0.02062272 0.018075773 0.022946075 -0.02407088
0000d0 27 27 08 3d ad 58 ea bc 3f 9b 3c 3b d9 5d 83 bc
       0.033240464 -0.028606737 0.0028779057 -0.016035961
0000e0 79 25 28 3c 78 fc a7 bb 20 54 34 bc 31 c6 ca bb
       0.01026284 -0.005126532 -0.011006385 -0.006188177
0000f0 1d 89 22 bd 1c 24 04 bc 7e 15 58 3c 33 20 04 3d
       -0.039681543 -0.00806525 0.013188718 0.03225727
000100 f8 88 c7 bc 00 8d d3 bc cd 9d cd 3c e2 19 c9 bc
       -0.024357304 -0.02582407 0.02509966 -0.024548475
000110 c9 c9 07 3d 19 54 f6 3c f7 fd 5b 3c a5 88 b0 bd
       0.03315142 0.030069398 0.013427249 -0.08619813
000120 26 15 fb bc cf 3e 9d 3c 50 6b 88 3c d2 19 33 3c
       -0.030649733 0.019194989 0.016652733 0.010931449
000130 9b cd 2f bc fa c3 d0 3b e4 7d c0 bc a2 1b 21 bd
       -0.0107301725 0.0063710185 -0.02349753 -0.039332993
000140 44 a5 94 3c 03 fc b0 bc 74 0e 48 3d 52 0f 90 3d
       0.018145211 -0.021604544 0.04884191 0.07034172
000150 68 ec 49 3c 81 ee 11 3d 2d 09 3c 3d b3 d1 01 bd
       0.01232443 0.035627846 0.04590719 -0.031694125
000160 45 11 3c bd 4f 8d 98 3c a5 a7 45 3d d1 63 8b 3c
       -0.045914907 0.018622069 0.04825558 0.01701537
000170 a1 2a 87 bc b6 56 4b bb 21 06 6b 3d 8d 23 e3 bc
       -0.01649982 -0.0031027026 0.05737889 -0.027726913
000180 5e fe a0 3c be 21 90 3c db df 39 3d 91 fe a6 3a
       0.019652542 0.017594215 0.0453795 0.0012740662
000190 35 75 27 3d d3 b2 c9 bc 72 73 79 3c 43 c4 6d bb
       0.04088326 -0.024621403 0.015225278 -0.0036280311
0001a0 66 ef 45 3d d1 33 0d bd 58 3a 6f bc 69 2a 3f bc
       0.04832401 -0.034473244 -0.014601313 -0.011667826
0001b0 cf ab 04 bd 09 49 be 3c e5 ce ef 3b fd ea 1d bd
       -0.032390412 0.023228185 0.007318365 -0.03855418
0001c0 a7 36 e2 bc ac 2f 83 bc b5 cd 16 bd af e5 d9 3c
       -0.02761395 -0.016013943 -0.03681727 0.02659878
0001d0 0f a7 a7 3c a2 29 e3 bc 2e 8c 62 3d a2 a2 ea bb
       0.020465402 -0.027729813 0.055309467 -0.0071605006
0001e0 62 9e 08 bd 63 19 92 bc b7 b4 c9 3c 6d b8 da 3c
       -0.03335417 -0.017834371 0.024622304 0.02669927
0001f0 da 05 a1 3c f2 b8 28 3c f0 05 8d 3c 3a 3d 19 3d
       0.01965611 0.010298001 0.017214745 0.037411906
000200 62 cc df 3b f1 4a c1 b8 0c 34 55 3d 0a c6 0c 3d
       0.0068297843 -9.216916e-05 0.05205159 0.034368552
000210 f4 84 8e bc 5d bf e8 3c 51 e5 d9 3a 1a a4 09 3d
       -0.017397381 0.028411562 0.0016624128 0.033603765
000220 53 cb 6d 3b 37 39 6b 3a df d4 de 3b 1a 4e a2 bc
       0.003628452 0.0008973064 0.0068002786 -0.019812632
000230 1b 23 34 3d dc a0 3c 3c cd 90 59 bd b6 b8 4d bc
       0.04397879 0.011512961 -0.05311661 -0.012556246
000240 87 17 03 3c 3a c6 45 3d aa 76 c4 bd 05 03 39 3d
       0.008001215 0.048284747 -0.09592946 0.045168895
000250 4e 20 83 3d 1e c0 91 bd 86 5a 66 3c 56 11 7a 3d
       0.06402646 -0.071167216 0.014059668 0.06105169
000260 ab 2e 06 3c f8 94 df 3a 2d 2c f3 ba e1 ad 31 3d
       0.008189837 0.0017057946 -0.0018552594 0.043378714
000270 b1 7f da bc d9 31 06 3c e9 74 86 bb e3 b0 02 bd
       -0.026672216 0.008190596 -0.0041032922 -0.031906974
000280 dc c1 03 bd a1 84 37 bd 6d 58 fb 3c 4d 33 e2 3c
       -0.0321673 -0.04480422 0.030681813 0.027612353
000290 21 0d 7a bd 1e ad 4e 3d 02 fb 0d 3d 8c c4 20 bc
       -0.061047677 0.050458066 0.034663208 -0.009812485
0002a0 0a ac d6 3c 97 6c 02 3c 54 7e 8b bc d1 aa f1 3c
       0.026205081 0.00796046 -0.017028011 0.029500397
0002b0 88 1d f5 3b 13 08 a4 38 02 40 3d bd 2b c7 f4 3b
       0.007480327 7.821633e-05 -0.04620362 0.0074700317
0002c0 bb ab 60 3d 13 12 df 3b a4 87 3a bd ed ed ae bd
       0.054851275 0.0068075745 -0.045539513 -0.085414745
0002d0 d7 e4 bd bc 36 4e 9b 3c 9c 85 c0 3d 8e ba 37 bb
       -0.023180408 0.018958192 0.09400484 -0.002803478
0002e0 a9 63 c3 3c b6 2e 77 3d f1 c2 31 bd 4a 2c 46 bd
       0.023851233 0.06034728 -0.0433988 -0.04838208
0002f0 df ca be bd a2 5a 6b 3c 38 79 4f 3d 42 2f 2d 3d
       -0.09316038 0.01436487 0.050652713 0.042281397
000300 e9 ef 4d bd 10 10 cb 3c 3f 45 e1 bc af 49 09 bd
       -0.050277624 0.024787933 -0.02749884 -0.033517536
000310 34 12 30 3c fd 09 03 bb 22 5a 23 bd 93 8e 6c 3d
       0.010746527 -0.0019994967 -0.03988088 0.057753157
000320 3d 10 7a 3d 7f 61 24 bc 98 11 0a 3c 02 bc 3f 3d
       0.061050642 -0.0100330105 0.008427046 0.046810158
000330 8b b8 0b bd ca 5e 1d bd 71 8f a2 3c 35 2c ed bb
       -0.03411154 -0.038420476 0.019843789 -0.007237936
000340 45 cf 8a bc d6 f5 01 3e 16 69 8b 3b b4 87 3b 3c
       -0.016944537 0.12691435 0.0042544706 0.011445928
000350 00 34 0c 3c 09 4c 07 bc 00 95 5d bc d0 c0 1c bc
       0.00855732 -0.008257874 -0.013524294 -0.009567454
000360 30 f1 90 3a 1d 86 53 3d 9b 0a bf 3d a5 f6 40 bd
       0.0011058208 0.051641572 0.09328195 -0.04711022
000370 e7 dc 86 bc f2 5d dd 3d f6 64 98 3a bf b1 38 3c
       -0.016462756 0.10808934 0.0011626768 0.011272847
000380 ac 80 87 3c 93 a9 06 3d 0d 4c cd bc 6d 7b a3 3b
       0.016540848 0.032876562 -0.025060678 0.0049890787
000390 0a 17 0c 3d db 52 c6 bc c0 0b 35 bc 78 c8 e8 ba
       0.03420166 -0.02420943 -0.011050165 -0.001775994
0003a0 8a 78 00 bd 98 b9 00 3b 16 09 47 bc f6 63 a6 bb
       -0.031364955 0.0019641872 -0.012148162 -0.0050778342
0003b0 26 d0 06 bd 68 31 86 3c 77 66 a5 bc 90 cc b4 bb
       -0.03291335 0.01638098 -0.02019046 -0.00551755
0003c0 ce 2b d7 bc 58 74 55 bc 8e a1 85 bb 17 fa 2c 3b
       -0.026266005 -0.013028227 -0.0040780967 0.0026394182
0003d0 3b 67 ff bc 0a 99 ff bc c7 61 20 bd 63 1e 26 bd
       -0.031177154 -0.031200904 -0.039155748 -0.040556323
0003e0 b3 56 20 bd 73 51 48 3d 13 e6 8c bc 09 35 28 bd
       -0.039145183 0.0489058 -0.017199552 -0.041066203
0003f0 5c a8 09 bc 61 5f 01 bd 80 77 15 3d cc e3 3c bb
       -0.008401956 -0.0315851 0.036490917 -0.00288223

net.6.bias f4 [32]
000000 7c 98 0c 3d 76 8f 09 bb 01 af 53 bb f2 b9 18 3d
       0.034325108 -0.002099005 -0.0032300355 0.037286706
000010 4c 8d 03 3d 92 68 58 3c 06 2b 02 bb 0b 67 67 3d
       0.032117173 0.013208525 -0.001986207 0.056494754
000020 9a 83 2f bb 7e 7e 9c 3c a7 eb 1d bc 3a e9 8f bc
       -0.0026781322 0.019103285 -0.009638703 -0.017567266
000030 98 fb 11 bd 89 a4 e8 ba 1d b8 25 3c c3 5d 16 3d
       -0.03564033 -0.0017749231 0.010114697 0.036710512
000040 ae db be bc bb 87 03 bd 97 ea b9 bb 35 70 e9 bc
       -0.02329811 -0.032111865 -0.0056737172 -0.028495887
000050 dc 5a 7f 3c 16 10 39 3c d0 9a 9f 3c 48 be b7 3c
       0.015585627 0.011295339 0.019483 0.0224296
000060 07 93 74 bc 51 ee 13 3d 3f 6f 3f bd 55 66 04 bd
       -0.014927632 0.036115948 -0.046736952 -0.032324154
000070 ad 57 52 3d 82 7e e2 3c 1e 66 29 3c 37 fe 29 bd
       0.051353145 0.027648214 0.010339288 -0.041502204

classify_head.1.weight f4 [20, 32]
000000 bd e4 82 3e d4 4f 68 3e 10 87 f7 bd 81 04 ad 3b
       0.25565138 0.22686702 -0.12086308 0.005280078
000010 5d d8 5c bd bb 3f d1 ba 1c 2d 82 bd e8 a8 32 3e
       -0.053917278 -0.0015964428 -0.0635626 0.17447245
000020 60 d3 49 be 14 00 bb bd 32 c8 14 be e9 5d 86 be
       -0.1970954 -0.09130874 -0.14529493 -0.26243523
000030 15 b3 e0 3d 56 76 15 3d f8 92 c6 bc df b3 7f bc
       0.10971657 0.036489807 -0.024240002 -0.015606849
000040 5a 41 24 3d 4f 94 36 be 06 18 6b 3e f3 a9 8c bc
       0.040101387 -0.17830013 0.22958383 -0.017170882
000050 7a 8a 7b 3e d3 14 47 bd 08 28 23 bd 5e 83 03 3d
       0.24564543 -0.048603844 -0.0398331 0.032107703
000060 86 a1 25 be da 81 2a bc dc 27 18 be 6a f5 62 bd
       -0.16174898 -0.010406936 -0.14858955 -0.055409826
000070 4e 4a f5 bd b9 52 0c 3e d0 ef cb bc f8 c5 bf bd
       -0.11977063 0.13703431 -0.024894625 -0.093639314
000080 11 25 0f be fc 95 02 bd 46 8f 47 3e b7 5a 97 be
       -0.13978983 -0.031881317 0.19488248 -0.29561397
000090 cf 73 23 3e f8 4d 5c 3e ad 2a 17 3e 21 cd f4 bd
       0.15962146 0.21514118 0.14762373 -0.11953188
0000a0 0e 86 72 3e 9c e6 35 be eb 4d 40 3d d3 f3 ed bd
       0.2368395 -0.17763752 0.04694931 -0.116187714
0000b0 43 9b e3 bc 76 29 bd 3d 90 39 92 3d 18 ba cf bd
       -0.027783995 0.09236424 0.071398854 -0.101429164
0000c0 39 2c 20 3e 97 61 1b be 22 3d fc bc 0c 6a 48 be
       0.1564187 -0.15173946 -0.03079087 -0.19571704
0000d0 2c 83 06 be ea 94 d3 3c 0e b7 cb 3c 77 76 57 bd
       -0.13135976 0.025827844 0.02486756 -0.05260321
0000e0 ed 0b 4b bd 94 aa 17 3e c7 e6 18 3e 0f 2e ab bd
       -0.04957192 0.14811164 0.14931785 -0.08358394
0000f0 33 56 50 3e 66 1c ff 3b 0b 8f 4a be 96 30 ad bd
       0.20345382 0.007785368 -0.19781129 -0.08456533
000100 cf 69 6d b9 7d eb c3 bd 07 d9 a5 3d 4f 8b 71 3d
       -0.00022641498 -0.095664 0.08098035 0.058970746
000110 2f 4b 86 3e 11 a8 2c 3d d4 99 8b bc 51 5f 0f 3e
       0.26229236 0.042152468 -0.017041124 0.14001204
000120 b9 c3 23 3e a8 04 85 3d 41 95 13 be 63 63 bd 3d
       0.15992631 0.06495029 -0.14412405 0.09247472
000130 28 1d 57 bd fa e5 0e 3e 52 f9 90 3d 5f 5a 5c 3e
       -0.05251804 0.13954917 0.07078804 0.21518849
000140 92 10 3f be 7c 80 cb 3d 01 d9 8b 3c 4c 65 67 3e
       -0.18658665 0.09936616 0.017071249 0.22597235
000150 52 8a 29 be 61 9b d7 3d 36 66 03 bd 71 71 71 be
       -0.16556671 0.10527683 -0.032079898 -0.2357843
000160 e9 83 71 bd 21 5b cb bc a5 c8 db 3d 5f a9 13 3e
       -0.05896369 -0.024823727 0.10731629 0.14420079
000170 cd ee ea bc 65 ea 7d bd 4c 97 17 bd fc 87 22 3e
       -0.028678322 -0.061991114 -0.037009522 0.15872186
000180 c2 62 6b be 3b cf 94 bd 7b 34 f0 bd 26 89 8a 3e
       -0.22986892 -0.072660886 -0.1172876 0.2705776
000190 35 b0 6e bd fc f8 05 3e b6 58 1f bc e2 01 01 be
       -0.058273513 0.13083261 -0.00972574 -0.12598374
0001a0 bd 7e f8 bd 9d 9c 5f bd e0 89 66 3e 75 82 dc 3d
       -0.121335484 -0.054592717 0.22513533 0.1076707
0001b0 7f cd 8f 3d 09 0a 09 be 33 67 a7 bd 80 e7 96 3e
       0.07021617 -0.13382734 -0.081739806 0.29473495
0001c0 46 c9 8d 3c 33 51 5c 3c 72 97 3a be 6a f7 bc 3d
       0.017307889 0.013447094 -0.18221834 0.09226878
0001d0 62 8c 31 3e 8f c8 e6 bd a7 c0 a7 bd c3 d5 9f bd
       0.17338708 -0.11268722 -0.081910424 -0.07804444
0001e0 04 2a c3 3d 58 b2 34 be 23 65 89 bd c6 2c 6e 3d
       0.09529498 -0.17646158 -0.067087434 0.058148168
0001f0 d5 6e 37 be bd 13 dc bd e3 e9 c3 3d 12 1d 09 3e
       -0.17913373 -0.10745952 0.09566095 0.13389996
000200 17 e7 e6 3d 98 c1 56 3d 3a 88 61 be 35 44 8b 3d
       0.11274546 0.05243072 -0.22024623 0.06800119
000210 4e 45 96 be 10 6b 87 3d e7 e3 05 3e 31 29 c6 3d
       -0.2934975 0.066122174 0.13075219 0.096758254
000220 fd a0 77 bd 27 45 9b 3d 30 36 8f 3e f7 1c 54 3d
       -0.060456265 0.07581549 0.2797103 0.051785436
000230 e9 5d 0b 3e 22 61 46 3e e4 17 3c 3d 4e dd 10 3e
       0.13610043 0.1937299 0.04592122 0.14146921
000240 ef 04 5a 3e a4 7c 09 3e 54 08 d0 bd 2d 52 ae 3c
       0.21290945 0.13426453 -0.101578385 0.021279419
000250 33 c2 76 bd f2 4f d3 3d 22 c9 92 bb b9 eb 3e be
       -0.060243797 0.10317983 -0.0044795433 -0.18644609
000260 a1 6f de bd fa ec 0f be 56 a1 94 bd d8 11 89 3d
       -0.10861135 -0.14055243 -0.07257335 0.066928566
000270 07 f8 ca 3d cf 61 8f bd 2b 0e db 3d 54 ed 5c 3d
       0.09910589 -0.070010774 0.10696062 0.05393727
000280 a7 f9 8b 3d 58 c6 0f 3e fc 6f 7b 3e a9 55 9c 3e
       0.06834727 0.14040506 0.24554437 0.30534104
000290 7d 90 3c 3e 1b cc 1c bc 73 bf c5 3d 6f a1 15 3e
       0.18414493 -0.009570147 0.09655657 0.14612363
0002a0 55 5b 16 3e ff 03 3d 3e a7 73 32 be 74 f6 96 3d
       0.14683278 0.18458556 -0.1742693 0.07371226
0002b0 89 86 1c be 72 cf 21 3b d5 e6 bc bd 97 85 06 be
       -0.15285696 0.0024690297 -0.09223715 -0.13136898
0002c0 7e 02 68 be e6 9a ab bd 33 cb e2 bd f2 54 45 be
       -0.226572 -0.08379154 -0.110739134 -0.19270685
0002d0 f0 78 3f be b2 fd 5f 3d 96 d8 64 3e 24 62 4a be
       -0.18698478 0.054685302 0.22348246 -0.19764
0002e0 e7 16 8d 3c 83 8a 8f bd 17 5b 97 3d 87 47 2f bd
       0.017222835 -0.07008841 0.07390421 -0.042792823
0002f0 08 83 86 be a6 2d ba 3d 6b 17 4b 3d 1b bf 59 3e
       -0.26271844 0.09090738 0.04958288 0.21264307
000300 ae 6a 25 3a 68 9d ef bc b1 07 90 bd a9 92 30 be
       0.0006310147 -0.029249862 -0.07032717 -0.17243446
000310 d3 d8 1f 3e 93 ff 26 be a3 9c d8 bd b4 12 60 be
       0.15610056 -0.16308431 -0.10576751 -0.21882135
000320 4f 2d 4d 3e 30 40 8d 3e 70 8a 3d 3e 8b 04 a6 3d
       0.20036815 0.27588034 0.18509841 0.08106335
000330 49 d4 17 3e ca f1 29 3e 05 ef 11 3d e6 27 3a 3e
       0.14827074 0.16596141 0.035628337 0.18179283
000340 97 b4 cc 3c 91 f9 44 3e 4a 80 9e bd 97 43 b0 3d
       0.024988456 0.19235827 -0.07739313 0.08606642
000350 d7 8c 3e be 71 06 07 3e d4 9e e3 3d 6e e6 46 be
       -0.18608414 0.13186051 0.111142784 -0.1942384
000360 e3 a8 4d 3d 3d d0 13 b8 ae 43 4a be df a5 76 be
       0.05020989 -3.5241468e-05 -0.1975238 -0.24086712
000370 f6 64 2f 3c b8 35 4b be 57 13 41 3e 2c 16 13 be
       0.010705223 -0.19844711 0.18855034 -0.14363927
000380 4a a0 36 be ff ca 81 3e 87 79 e6 3d 4f 30 88 bd
       -0.17834583 0.25350186 0.11253648 -0.06649839
000390 31 01 20 3e d2 69 34 be 5d ab f6 3d 59 d7 eb bd
       0.15625454 -0.17618492 0.12044404 -0.11515684
0003a0 8c 17 99 3c f3 be a0 bd 6f f6 38 be b2 70 47 3e
       0.018687986 -0.07848921 -0.18062757 0.19476584
0003b0 22 27 1a 3c 0f cf 91 3c ee 87 df bd 9e c2 18 be
       0.009408744 0.017798929 -0.109145984 -0.1491799
0003c0 74 c1 53 be 89 4a 38 be 4e e5 6b bd 09 56 5c 3e
       -0.20679265 -0.17997183 -0.05759173 0.21517195
0003d0 c5 be 1a be 76 5d 30 be 50 4e 15 bd 5b ab 85 3e
       -0.15111835 -0.17223153 -0.036451638 0.26107296
0003e0 d2 18 cf 3d ce 95 5b 3e 40 48 d9 3d 82 28 55 3e
       0.10112156 0.21443865 0.10609484 0.20816234
0003f0 cc a1 28 3d 0f 20 e4 bc 5f c6 fd 3d c0 dc ae bd
       0.041169927 -0.027847318 0.12391352 -0.085381985

classify_head.1.bias f4 [20]
000000 8c b3 ac 3d cd 7a 09 be 09 1c 29 3c 6b d1 a9 bd
       0.08432683 -0.13425751 0.0103216255 -0.082918964
000010 89 2d e6 bd 7d 4b 6a bd b3 4d 2e 3d 6c 2e 2a 3d
       -0.11239154 -0.057200897 0.04255457 0.041548178
000020 8f 3c 3c 3d 68 6d b4 3d f4 7b 0f 3d 77 14 cc bd
       0.04595619 0.0880993 0.03503032 -0.09964841
000030 6a d5 ed 3d e9 f4 a5 bd 8a f9 53 bd 0d 53 21 bd
       0.11612971 -0.081033535 -0.05175165 -0.039385844
000040 b7 17 9d bd 39 6c 48 bd 9f 2d d0 bd d3 42 80 bd
       -0.07670539 -0.048931334 -0.101649515 -0.06262746

classify_head.2.weight f4 [10, 20]
000000 8e 13 a8 be 0d 5b 30 3e fb 59 91 3d 78 47 6f be
       -0.3282742 0.17222233 0.070972405 -0.23367107
000010 cc 6f c6 bd ec 6c 27 3e ed 10 69 bd 55 c5 07 3e
       -0.09689292 0.16350144 -0.056900907 0.1325887
000020 87 cb 98 3e aa e6 f9 3e 95 0f 79 3c a7 1b 78 be
       0.2984278 0.48808795 0.015201469 -0.24229299
000030 12 94 b1 be e3 7e fd bd c7 4d 39 be a2 85 16 3d
       -0.3468328 -0.12377717 -0.18096076 0.036748536
000040 17 7e 9a 3e bc 1f 11 be 15 6f db be 2f aa b0 3e
       0.30174324 -0.14172262 -0.42858186 0.3450484
000050 ed 28 80 3e ef b7 af 3e c9 b7 cd bd 22 21 dd be
       0.25031224 0.34320018 -0.1004482 -0.4318934
000060 44 67 b1 be 05 13 0c be ce a6 3c be 2f 8e 04 3e
       -0.34649098 -0.1367913 -0.18423006 0.12944864
000070 e4 b9 c1 3d 3e 1c 15 be 5a 68 67 be 21 b8 56 3e
       0.09459284 -0.14561555 -0.225984 0.20968677
000080 4f 74 89 3e 6f cd 7d be 92 4a 07 be 55 58 2a 3e
       0.2684655 -0.24785398 -0.1321204 0.16635258
000090 2c 51 eb bd ae 17 22 3e e8 c3 ab be bc 63 2b be
       -0.11490092 0.15829346 -0.33547902 -0.16737264
0000a0 cb 3d 7f be 27 58 1a be 4e d3 53 3e 31 a4 f9 3d
       -0.24925916 -0.1507269 0.20686075 0.1218952
0000b0 9d d3 13 3e b2 94 ac be ad b0 ba 3e 72 dd 7d 3e
       0.14436193 -0.33707196 0.36462918 0.24791506
0000c0 56 c1 44 bd d7 97 27 3e 22 39 b2 bd bb ab 53 3b
       -0.048035942 0.16366516 -0.087023035 0.0032298404
0000d0 eb 27 53 3d af cd 96 3e 49 2d 07 bd 80 49 8e bd
       0.05155174 0.294538 -0.03300217 -0.06947613
0000e0 a7 71 cd be ce 41 99 be bb 3c 94 be 9c 2d 84 3d
       -0.40125772 -0.29933017 -0.28952584 0.06454012
0000f0 f1 28 5b 3e c5 36 5d 3c 34 57 10 be 8e af 06 be
       0.21402337 0.013501828 -0.14095765 -0.13152906
000100 f6 16 8f 3e 2f 69 9e be 67 45 25 3d e7 a5 6c be
       0.27947205 -0.30939624 0.04034939 -0.23110162
000110 2e 6f 11 3e c1 8b 97 3d aa 9e 82 be f2 a5 aa be
       0.14202568 0.07399703 -0.25511676 -0.3332973
000120 98 be 0e 3e 6c d3 82 be c8 33 83 be 9a 68 75 bb
       0.13939893 -0.25551927 -0.25625443 -0.003744638
000130 c8 b8 a2 be 75 90 14 bf d2 9c 88 3e 49 b2 21 bc
       -0.31781602 -0.58032924 0.26682144 -0.009869167
000140 93 3e 72 3e e7 33 18 be 12 34 57 bd 01 21 da bc
       0.23656683 -0.14863549 -0.052539892 -0.026627066
000150 0d 08 46 be 44 ab 00 3e 3e 5f c1 be 9a 47 93 3e
       -0.19339009 0.12565333 -0.37767977 0.28765565
000160 f8 d7 1c be 00 a4 ab 3d 13 ea 4e be 32 3d b6 3c
       -0.1531676 0.0838089 -0.2020648 0.022245977
000170 98 a2 24 3e 98 da 97 3d 43 f7 c0 bd d2 24 07 bf
       0.1607765 0.0741474 -0.094221614 -0.5279056
000180 75 d8 f6 bd 64 2d 52 3e ac c7 3d bd 80 ba 36 3e
       -0.12053005 0.20525128 -0.046333 0.17844582
000190 11 1a e9 bd 5e ef 9b be d0 7e 11 bd 4e 19 fa bd
       -0.11381925 -0.3045606 -0.03552133 -0.12211858
0001a0 80 b8 a1 bb c3 76 2c 3d 94 b4 88 3e 0a 52 26 3e
       -0.004935324 0.042105448 0.2670027 0.16242233
0001b0 f2 35 90 3e 3b c3 74 be 22 5d 4f 3e 1e 25 9f be
       0.28166157 -0.239026 0.20250371 -0.31083006
0001c0 62 20 38 be 8f 0d 3f bd 40 bf d2 3e b9 a3 74 3e
       -0.17981103 -0.04664379 0.41161537 0.2389058
0001d0 b0 e4 a8 3e a2 bf 90 be 6b 26 32 3e e0 98 91 be
       0.32986975 -0.28271204 0.17397468 -0.28436947
0001e0 bd 61 9e 3d 48 ca db bd 85 82 fe 3d 22 e2 1f bd
       0.07733486 -0.107319415 0.124272384 -0.039034016
0001f0 42 7a 60 3d fb 41 6a bd 57 88 15 3e ed 02 7e be
       0.054804094 -0.05719183 0.14602791 -0.24805804
000200 d7 6c e0 be 01 ff 2e be c1 27 fa 3d 93 61 84 3e
       -0.43833038 -0.17089464 0.12214614 0.25855693
000210 e5 6e 64 3d 6c 07 38 be ec eb e3 3e 60 72 2d 3d
       0.05576982 -0.17971581 0.44515932 0.042345405
000220 af b3 99 3e 47 51 84 3e 18 27 48 be 6d 17 44 bd
       0.300199 0.2584326 -0.19546163 -0.047873903
000230 fd 65 f3 3d b9 db 11 3e b5 28 be be ef f1 6a be
       0.11884687 0.14243974 -0.37140432 -0.22943853
000240 f4 51 6f 3e 6b 3b ef be 9d 7c 83 be 6f 9d 47 3d
       0.23371106 -0.4672502 -0.2568101 0.048734125
000250 e9 86 09 3e f1 42 20 bd 74 4b a0 3e 6b 39 12 be
       0.1343037 -0.03912634 0.31307566 -0.14279716
000260 0e 36 32 be dd 4e c6 3e e7 94 87 be 07 bb 83 3e
       -0.17403433 0.38732043 -0.2648079 0.25728628
000270 eb fc 62 bd 6b 55 73 3d 8a 78 4b 3e 5b 79 2e bd
       -0.055416983 0.059407633 0.19870201 -0.042596202
000280 28 a1 56 be 07 b2 65 3e 00 13 1a ba 2e 33 97 3e
       -0.20959914 0.22431193 -0.0005877465 0.29531235
000290 0a ff 4f 3d c1 29 53 bd 2d 2f 39 3e b5 34 93 be
       0.050780334 -0.05155349 0.18084402 -0.2875115
0002a0 c5 72 82 bd ae da 03 bc 63 66 7b bd b4 e0 35 3e
       -0.06369547 -0.008047743 -0.06137694 0.17761499
0002b0 3a c3 2b 3d a6 3d bd be 09 6a 3f be ea 44 ad 3e
       0.04193423 -0.36961097 -0.18692793 0.3384164
0002c0 0f 1d 71 3d 36 0f b9 bd ea 0e 1c 3e 1f 93 96 3d
       0.058865603 -0.090361044 0.15240064 0.0735228
0002d0 61 1c 0f 3e 24 6b 1e be ec 47 59 be d1 7b f4 3d
       0.1397567 -0.15470558 -0.21218842 0.119376786
0002e0 71 d9 d9 3d b7 46 af bc ed 68 3b be 1a 15 5b bd
       0.10637177 -0.021396024 -0.18301745 -0.05348692
0002f0 b9 10 9d 3e b8 48 59 3d 12 1f 4a be 1e b8 1e 3e
       0.3067682 0.053047866 -0.19738415 0.15499923
000300 39 74 80 be 60 43 5b bd d7 77 36 bd 60 f1 3f be
       -0.2508867 -0.05353105 -0.044547882 -0.18744421
000310 01 06 71 3e 8e 8c 35 be 11 01 ba 3e 21 d8 9e 3e
       0.23537447 -0.17729399 0.3632894 0.31024268

classify_head.2.bias f4 [10]
000000 59 a0 08 3b 77 f7 3d 3e 95 21 09 3e 29 d5 31 3d
       0.0020847528 0.18551432 0.13391717 0.043416176
000010 5a 8c 14 bc d1 af 05 3c 2d 5b a6 bd 61 30 0f 3e
       -0.009066666 0.008159594 -0.08122859 0.13983299
000020 fc bf 37 3e 8d c5 3c 3e
       0.1794433 0.18434735
